input: "data"
input_dim: 2
input_dim: 3
input_dim: 377
input_dim: 1241

layer {
  propagate_down: false
  name: "conv1_1_3x3_s2"
  type: "Convolution"
  bottom: "data"
  top: "conv1_1_3x3_s2"
  param {
    lr_mult: 0
    decay_mult: 0
  }
  convolution_param {
    num_output: 64
    pad: 1
    kernel_size: 3
    stride: 2
    weight_filler {
      type: "msra"
    }
    bias_term: false
  }
}
layer {
  propagate_down: false
  name: "conv1_1_3x3_s2/bn"
  type: "BN"
  bottom: "conv1_1_3x3_s2"
  top: "conv1_1_3x3_s2"
  param {
    lr_mult: 0
    decay_mult: 0
  }
  param {
    lr_mult: 0
    decay_mult: 0
  }
  param {
    lr_mult: 0
    decay_mult: 0
  }
  param {
    lr_mult: 0
    decay_mult: 0
  }
  bn_param {
    scale_filler {
      type: "constant"
      value: 1
    }
    shift_filler {
      type: "constant"
      value: 0
    }
    moving_average: true
    decay: 0.05
  }
}
layer {
  propagate_down: false
  name: "conv1_1_3x3_s2/relu"
  type: "ReLU"
  bottom: "conv1_1_3x3_s2"
  top: "conv1_1_3x3_s2"
}
layer {
  propagate_down: false
  name: "conv1_2_3x3"
  type: "Convolution"
  bottom: "conv1_1_3x3_s2"
  top: "conv1_2_3x3"
  param {
    lr_mult: 0
    decay_mult: 0
  }
  convolution_param {
    num_output: 64
    pad: 1
    kernel_size: 3
    stride: 1
    weight_filler {
      type: "msra"
    }
    bias_term: false
  }
}
layer {
  propagate_down: false
  name: "conv1_2_3x3/bn"
  type: "BN"
  bottom: "conv1_2_3x3"
  top: "conv1_2_3x3"
  param {
    lr_mult: 0
    decay_mult: 0
  }
  param {
    lr_mult: 0
    decay_mult: 0
  }
  param {
    lr_mult: 0
    decay_mult: 0
  }
  param {
    lr_mult: 0
    decay_mult: 0
  }
  bn_param {
    scale_filler {
      type: "constant"
      value: 1
    }
    shift_filler {
      type: "constant"
      value: 0
    }
    moving_average: true
    decay: 0.05
  }
}
layer {
  propagate_down: false
  name: "conv1_2_3x3/relu"
  type: "ReLU"
  bottom: "conv1_2_3x3"
  top: "conv1_2_3x3"
}
layer {
  propagate_down: false
  name: "conv1_3_3x3"
  type: "Convolution"
  bottom: "conv1_2_3x3"
  top: "conv1_3_3x3"
  param {
    lr_mult: 0
    decay_mult: 0
  }
  convolution_param {
    num_output: 128
    pad: 1
    kernel_size: 3
    stride: 1
    weight_filler {
      type: "msra"
    }
    bias_term: false
  }
}
layer {
  propagate_down: false
  name: "conv1_3_3x3/bn"
  type: "BN"
  bottom: "conv1_3_3x3"
  top: "conv1_3_3x3"
  param {
    lr_mult: 0
    decay_mult: 0
  }
  param {
    lr_mult: 0
    decay_mult: 0
  }
  param {
    lr_mult: 0
    decay_mult: 0
  }
  param {
    lr_mult: 0
    decay_mult: 0
  }
  bn_param {
    scale_filler {
      type: "constant"
      value: 1
    }
    shift_filler {
      type: "constant"
      value: 0
    }
    moving_average: true
    decay: 0.05
  }
}
layer {
  propagate_down: false
  name: "conv1_3_3x3/relu"
  type: "ReLU"
  bottom: "conv1_3_3x3"
  top: "conv1_3_3x3"
}
layer {
  propagate_down: false
  name: "pool1_3x3_s2"
  type: "Pooling"
  bottom: "conv1_3_3x3"
  top: "pool1_3x3_s2"
  pooling_param {
    pool: MAX
    kernel_size: 3
    stride: 2
    pad: 1
  }
}

## ----------------------Segmentation----------------------
layer {
  propagate_down: false
  name: "pool1_slice"
  type: "Slice"
  bottom: "pool1_3x3_s2"
  top: "left_pool1"
  top: "right_pool1"
  slice_param {
    slice_point: 1
    axis: 0
  }
}
layer {
  propagate_down: false
  name: "silence_right_pool1"
  type: "Silence"
  bottom: "right_pool1"
}
layer {
  propagate_down: false
  name: "conv2_1_1x1_reduce"
  type: "Convolution"
  bottom: "left_pool1"
  top: "conv2_1_1x1_reduce"
  param {
    lr_mult: 0
    decay_mult: 0
  }
  convolution_param {
    num_output: 64
    pad: 0
    kernel_size: 1
    stride: 1
    weight_filler {
      type: "msra"
    }
    bias_term: false
  }
}
layer {
  propagate_down: false
  name: "conv2_1_1x1_reduce/bn"
  type: "BN"
  bottom: "conv2_1_1x1_reduce"
  top: "conv2_1_1x1_reduce"
  param {
    lr_mult: 0
    decay_mult: 0
  }
  param {
    lr_mult: 0
    decay_mult: 0
  }
  param {
    lr_mult: 0
    decay_mult: 0
  }
  param {
    lr_mult: 0
    decay_mult: 0
  }
  bn_param {
    scale_filler {
      type: "constant"
      value: 1
    }
    shift_filler {
      type: "constant"
      value: 0
    }
    moving_average: true
    decay: 0.05
  }
}
layer {
  propagate_down: false
  name: "conv2_1_1x1_reduce/relu"
  type: "ReLU"
  bottom: "conv2_1_1x1_reduce"
  top: "conv2_1_1x1_reduce"
}
layer {
  propagate_down: false
  name: "conv2_1_3x3"
  type: "Convolution"
  bottom: "conv2_1_1x1_reduce"
  top: "conv2_1_3x3"
  param {
    lr_mult: 0
    decay_mult: 0
  }
  convolution_param {
    num_output: 64
    pad: 1
    kernel_size: 3
    stride: 1
    weight_filler {
      type: "msra"
    }
    bias_term: false
  }
}
layer {
  propagate_down: false
  name: "conv2_1_3x3/bn"
  type: "BN"
  bottom: "conv2_1_3x3"
  top: "conv2_1_3x3"
  param {
    lr_mult: 0
    decay_mult: 0
  }
  param {
    lr_mult: 0
    decay_mult: 0
  }
  param {
    lr_mult: 0
    decay_mult: 0
  }
  param {
    lr_mult: 0
    decay_mult: 0
  }
  bn_param {
    scale_filler {
      type: "constant"
      value: 1
    }
    shift_filler {
      type: "constant"
      value: 0
    }
    moving_average: true
    decay: 0.05
  }
}
layer {
  propagate_down: false
  name: "conv2_1_3x3/relu"
  type: "ReLU"
  bottom: "conv2_1_3x3"
  top: "conv2_1_3x3"
}
layer {
  propagate_down: false
  name: "conv2_1_1x1_increase"
  type: "Convolution"
  bottom: "conv2_1_3x3"
  top: "conv2_1_1x1_increase"
  param {
    lr_mult: 0
    decay_mult: 0
  }
  convolution_param {
    num_output: 256
    pad: 0
    kernel_size: 1
    stride: 1
    weight_filler {
      type: "msra"
    }
    bias_term: false
  }
}
layer {
  propagate_down: false
  name: "conv2_1_1x1_increase/bn"
  type: "BN"
  bottom: "conv2_1_1x1_increase"
  top: "conv2_1_1x1_increase"
  param {
    lr_mult: 0
    decay_mult: 0
  }
  param {
    lr_mult: 0
    decay_mult: 0
  }
  param {
    lr_mult: 0
    decay_mult: 0
  }
  param {
    lr_mult: 0
    decay_mult: 0
  }
  bn_param {
    scale_filler {
      type: "constant"
      value: 1
    }
    shift_filler {
      type: "constant"
      value: 0
    }
    moving_average: true
    decay: 0.05
  }
}
layer {
  propagate_down: false
  name: "conv2_1_1x1_proj"
  type: "Convolution"
  bottom: "left_pool1"
  top: "conv2_1_1x1_proj"
  param {
    lr_mult: 0
    decay_mult: 0
  }
  convolution_param {
    num_output: 256
    pad: 0
    kernel_size: 1
    stride: 1
    weight_filler {
      type: "msra"
    }
    bias_term: false
  }
}
layer {
  propagate_down: false
  name: "conv2_1_1x1_proj/bn"
  type: "BN"
  bottom: "conv2_1_1x1_proj"
  top: "conv2_1_1x1_proj"
  param {
    lr_mult: 0
    decay_mult: 0
  }
  param {
    lr_mult: 0
    decay_mult: 0
  }
  param {
    lr_mult: 0
    decay_mult: 0
  }
  param {
    lr_mult: 0
    decay_mult: 0
  }
  bn_param {
    scale_filler {
      type: "constant"
      value: 1
    }
    shift_filler {
      type: "constant"
      value: 0
    }
    moving_average: true
    decay: 0.05
  }
}
layer {
  propagate_down: false
  propagate_down: false
  name: "conv2_1"
  type: "Eltwise"
  bottom: "conv2_1_1x1_proj"
  bottom: "conv2_1_1x1_increase"
  top: "conv2_1"
  eltwise_param {
    operation: SUM
  }
}
layer {
  propagate_down: false
  name: "conv2_1/relu"
  type: "ReLU"
  bottom: "conv2_1"
  top: "conv2_1"
}
layer {
  propagate_down: false
  name: "conv2_2_1x1_reduce"
  type: "Convolution"
  bottom: "conv2_1"
  top: "conv2_2_1x1_reduce"
  param {
    lr_mult: 0
    decay_mult: 0
  }
  convolution_param {
    num_output: 64
    pad: 0
    kernel_size: 1
    stride: 1
    weight_filler {
      type: "msra"
    }
    bias_term: false
  }
}
layer {
  propagate_down: false
  name: "conv2_2_1x1_reduce/bn"
  type: "BN"
  bottom: "conv2_2_1x1_reduce"
  top: "conv2_2_1x1_reduce"
  param {
    lr_mult: 0
    decay_mult: 0
  }
  param {
    lr_mult: 0
    decay_mult: 0
  }
  param {
    lr_mult: 0
    decay_mult: 0
  }
  param {
    lr_mult: 0
    decay_mult: 0
  }
  bn_param {
    scale_filler {
      type: "constant"
      value: 1
    }
    shift_filler {
      type: "constant"
      value: 0
    }
    moving_average: true
    decay: 0.05
  }
}
layer {
  propagate_down: false
  name: "conv2_2_1x1_reduce/relu"
  type: "ReLU"
  bottom: "conv2_2_1x1_reduce"
  top: "conv2_2_1x1_reduce"
}
layer {
  propagate_down: false
  name: "conv2_2_3x3"
  type: "Convolution"
  bottom: "conv2_2_1x1_reduce"
  top: "conv2_2_3x3"
  param {
    lr_mult: 0
    decay_mult: 0
  }
  convolution_param {
    num_output: 64
    pad: 1
    kernel_size: 3
    stride: 1
    weight_filler {
      type: "msra"
    }
    bias_term: false
  }
}
layer {
  propagate_down: false
  name: "conv2_2_3x3/bn"
  type: "BN"
  bottom: "conv2_2_3x3"
  top: "conv2_2_3x3"
  param {
    lr_mult: 0
    decay_mult: 0
  }
  param {
    lr_mult: 0
    decay_mult: 0
  }
  param {
    lr_mult: 0
    decay_mult: 0
  }
  param {
    lr_mult: 0
    decay_mult: 0
  }
  bn_param {
    scale_filler {
      type: "constant"
      value: 1
    }
    shift_filler {
      type: "constant"
      value: 0
    }
    moving_average: true
    decay: 0.05
  }
}
layer {
  propagate_down: false
  name: "conv2_2_3x3/relu"
  type: "ReLU"
  bottom: "conv2_2_3x3"
  top: "conv2_2_3x3"
}
layer {
  propagate_down: false
  name: "conv2_2_1x1_increase"
  type: "Convolution"
  bottom: "conv2_2_3x3"
  top: "conv2_2_1x1_increase"
  param {
    lr_mult: 0
    decay_mult: 0
  }
  convolution_param {
    num_output: 256
    pad: 0
    kernel_size: 1
    stride: 1
    weight_filler {
      type: "msra"
    }
    bias_term: false
  }
}
layer {
  propagate_down: false
  name: "conv2_2_1x1_increase/bn"
  type: "BN"
  bottom: "conv2_2_1x1_increase"
  top: "conv2_2_1x1_increase"
  param {
    lr_mult: 0
    decay_mult: 0
  }
  param {
    lr_mult: 0
    decay_mult: 0
  }
  param {
    lr_mult: 0
    decay_mult: 0
  }
  param {
    lr_mult: 0
    decay_mult: 0
  }
  bn_param {
    scale_filler {
      type: "constant"
      value: 1
    }
    shift_filler {
      type: "constant"
      value: 0
    }
    moving_average: true
    decay: 0.05
  }
}
layer {
  propagate_down: false
  propagate_down: false
  name: "conv2_2"
  type: "Eltwise"
  bottom: "conv2_1"
  bottom: "conv2_2_1x1_increase"
  top: "conv2_2"
  eltwise_param {
    operation: SUM
  }
}
layer {
  propagate_down: false
  name: "conv2_2/relu"
  type: "ReLU"
  bottom: "conv2_2"
  top: "conv2_2"
}
layer {
  propagate_down: false
  name: "conv2_3_1x1_reduce"
  type: "Convolution"
  bottom: "conv2_2"
  top: "conv2_3_1x1_reduce"
  param {
    lr_mult: 0
    decay_mult: 0
  }
  convolution_param {
    num_output: 64
    pad: 0
    kernel_size: 1
    stride: 1
    weight_filler {
      type: "msra"
    }
    bias_term: false
  }
}
layer {
  propagate_down: false
  name: "conv2_3_1x1_reduce/bn"
  type: "BN"
  bottom: "conv2_3_1x1_reduce"
  top: "conv2_3_1x1_reduce"
  param {
    lr_mult: 0
    decay_mult: 0
  }
  param {
    lr_mult: 0
    decay_mult: 0
  }
  param {
    lr_mult: 0
    decay_mult: 0
  }
  param {
    lr_mult: 0
    decay_mult: 0
  }
  bn_param {
    scale_filler {
      type: "constant"
      value: 1
    }
    shift_filler {
      type: "constant"
      value: 0
    }
    moving_average: true
    decay: 0.05
  }
}
layer {
  propagate_down: false
  name: "conv2_3_1x1_reduce/relu"
  type: "ReLU"
  bottom: "conv2_3_1x1_reduce"
  top: "conv2_3_1x1_reduce"
}
layer {
  propagate_down: false
  name: "conv2_3_3x3"
  type: "Convolution"
  bottom: "conv2_3_1x1_reduce"
  top: "conv2_3_3x3"
  param {
    lr_mult: 0
    decay_mult: 0
  }
  convolution_param {
    num_output: 64
    pad: 1
    kernel_size: 3
    stride: 1
    weight_filler {
      type: "msra"
    }
    bias_term: false
  }
}
layer {
  propagate_down: false
  name: "conv2_3_3x3/bn"
  type: "BN"
  bottom: "conv2_3_3x3"
  top: "conv2_3_3x3"
  param {
    lr_mult: 0
    decay_mult: 0
  }
  param {
    lr_mult: 0
    decay_mult: 0
  }
  param {
    lr_mult: 0
    decay_mult: 0
  }
  param {
    lr_mult: 0
    decay_mult: 0
  }
  bn_param {
    scale_filler {
      type: "constant"
      value: 1
    }
    shift_filler {
      type: "constant"
      value: 0
    }
    moving_average: true
    decay: 0.05
  }
}
layer {
  propagate_down: false
  name: "conv2_3_3x3/relu"
  type: "ReLU"
  bottom: "conv2_3_3x3"
  top: "conv2_3_3x3"
}
layer {
  propagate_down: false
  name: "conv2_3_1x1_increase"
  type: "Convolution"
  bottom: "conv2_3_3x3"
  top: "conv2_3_1x1_increase"
  param {
    lr_mult: 0
    decay_mult: 0
  }
  convolution_param {
    num_output: 256
    pad: 0
    kernel_size: 1
    stride: 1
    weight_filler {
      type: "msra"
    }
    bias_term: false
  }
}
layer {
  propagate_down: false
  name: "conv2_3_1x1_increase/bn"
  type: "BN"
  bottom: "conv2_3_1x1_increase"
  top: "conv2_3_1x1_increase"
  param {
    lr_mult: 0
    decay_mult: 0
  }
  param {
    lr_mult: 0
    decay_mult: 0
  }
  param {
    lr_mult: 0
    decay_mult: 0
  }
  param {
    lr_mult: 0
    decay_mult: 0
  }
  bn_param {
    scale_filler {
      type: "constant"
      value: 1
    }
    shift_filler {
      type: "constant"
      value: 0
    }
    moving_average: true
    decay: 0.05
  }
}
layer {
  propagate_down: false
  propagate_down: false
  name: "conv2_3"
  type: "Eltwise"
  bottom: "conv2_2"
  bottom: "conv2_3_1x1_increase"
  top: "conv2_3"
  eltwise_param {
    operation: SUM
  }
}
layer {
  propagate_down: false
  name: "conv2_3/relu"
  type: "ReLU"
  bottom: "conv2_3"
  top: "conv2_3"
}
layer {
  propagate_down: false
  name: "conv3_1_1x1_reduce"
  type: "Convolution"
  bottom: "conv2_3"
  top: "conv3_1_1x1_reduce"
  param {
    lr_mult: 0
    decay_mult: 0
  }
  convolution_param {
    num_output: 128
    pad: 0
    kernel_size: 1
    stride: 2
    weight_filler {
      type: "msra"
    }
    bias_term: false
  }
}
layer {
  propagate_down: false
  name: "conv3_1_1x1_reduce/bn"
  type: "BN"
  bottom: "conv3_1_1x1_reduce"
  top: "conv3_1_1x1_reduce"
  param {
    lr_mult: 0
    decay_mult: 0
  }
  param {
    lr_mult: 0
    decay_mult: 0
  }
  param {
    lr_mult: 0
    decay_mult: 0
  }
  param {
    lr_mult: 0
    decay_mult: 0
  }
  bn_param {
    scale_filler {
      type: "constant"
      value: 1
    }
    shift_filler {
      type: "constant"
      value: 0
    }
    moving_average: true
    decay: 0.05
  }
}
layer {
  propagate_down: false
  name: "conv3_1_1x1_reduce/relu"
  type: "ReLU"
  bottom: "conv3_1_1x1_reduce"
  top: "conv3_1_1x1_reduce"
}
layer {
  propagate_down: false
  name: "conv3_1_3x3"
  type: "Convolution"
  bottom: "conv3_1_1x1_reduce"
  top: "conv3_1_3x3"
  param {
    lr_mult: 0
    decay_mult: 0
  }
  convolution_param {
    num_output: 128
    pad: 1
    kernel_size: 3
    stride: 1
    weight_filler {
      type: "msra"
    }
    bias_term: false
  }
}
layer {
  propagate_down: false
  name: "conv3_1_3x3/bn"
  type: "BN"
  bottom: "conv3_1_3x3"
  top: "conv3_1_3x3"
  param {
    lr_mult: 0
    decay_mult: 0
  }
  param {
    lr_mult: 0
    decay_mult: 0
  }
  param {
    lr_mult: 0
    decay_mult: 0
  }
  param {
    lr_mult: 0
    decay_mult: 0
  }
  bn_param {
    scale_filler {
      type: "constant"
      value: 1
    }
    shift_filler {
      type: "constant"
      value: 0
    }
    moving_average: true
    decay: 0.05
  }
}
layer {
  propagate_down: false
  name: "conv3_1_3x3/relu"
  type: "ReLU"
  bottom: "conv3_1_3x3"
  top: "conv3_1_3x3"
}
layer {
  propagate_down: false
  name: "conv3_1_1x1_increase"
  type: "Convolution"
  bottom: "conv3_1_3x3"
  top: "conv3_1_1x1_increase"
  param {
    lr_mult: 0
    decay_mult: 0
  }
  convolution_param {
    num_output: 512
    pad: 0
    kernel_size: 1
    stride: 1
    weight_filler {
      type: "msra"
    }
    bias_term: false
  }
}
layer {
  propagate_down: false
  name: "conv3_1_1x1_increase/bn"
  type: "BN"
  bottom: "conv3_1_1x1_increase"
  top: "conv3_1_1x1_increase"
  param {
    lr_mult: 0
    decay_mult: 0
  }
  param {
    lr_mult: 0
    decay_mult: 0
  }
  param {
    lr_mult: 0
    decay_mult: 0
  }
  param {
    lr_mult: 0
    decay_mult: 0
  }
  bn_param {
    scale_filler {
      type: "constant"
      value: 1
    }
    shift_filler {
      type: "constant"
      value: 0
    }
    moving_average: true
    decay: 0.05
  }
}
layer {
  propagate_down: false
  name: "conv3_1_1x1_proj"
  type: "Convolution"
  bottom: "conv2_3"
  top: "conv3_1_1x1_proj"
  param {
    lr_mult: 0
    decay_mult: 0
  }
  convolution_param {
    num_output: 512
    pad: 0
    kernel_size: 1
    stride: 2
    weight_filler {
      type: "msra"
    }
    bias_term: false
  }
}
layer {
  propagate_down: false
  name: "conv3_1_1x1_proj/bn"
  type: "BN"
  bottom: "conv3_1_1x1_proj"
  top: "conv3_1_1x1_proj"
  param {
    lr_mult: 0
    decay_mult: 0
  }
  param {
    lr_mult: 0
    decay_mult: 0
  }
  param {
    lr_mult: 0
    decay_mult: 0
  }
  param {
    lr_mult: 0
    decay_mult: 0
  }
  bn_param {
    scale_filler {
      type: "constant"
      value: 1
    }
    shift_filler {
      type: "constant"
      value: 0
    }
    moving_average: true
    decay: 0.05
  }
}
layer {
  propagate_down: false
  propagate_down: false
  name: "conv3_1"
  type: "Eltwise"
  bottom: "conv3_1_1x1_proj"
  bottom: "conv3_1_1x1_increase"
  top: "conv3_1"
  eltwise_param {
    operation: SUM
  }
}
layer {
  propagate_down: false
  name: "conv3_1/relu"
  type: "ReLU"
  bottom: "conv3_1"
  top: "conv3_1"
}
layer {
  propagate_down: false
  name: "conv3_2_1x1_reduce"
  type: "Convolution"
  bottom: "conv3_1"
  top: "conv3_2_1x1_reduce"
  param {
    lr_mult: 0
    decay_mult: 0
  }
  convolution_param {
    num_output: 128
    pad: 0
    kernel_size: 1
    stride: 1
    weight_filler {
      type: "msra"
    }
    bias_term: false
  }
}
layer {
  propagate_down: false
  name: "conv3_2_1x1_reduce/bn"
  type: "BN"
  bottom: "conv3_2_1x1_reduce"
  top: "conv3_2_1x1_reduce"
  param {
    lr_mult: 0
    decay_mult: 0
  }
  param {
    lr_mult: 0
    decay_mult: 0
  }
  param {
    lr_mult: 0
    decay_mult: 0
  }
  param {
    lr_mult: 0
    decay_mult: 0
  }
  bn_param {
    scale_filler {
      type: "constant"
      value: 1
    }
    shift_filler {
      type: "constant"
      value: 0
    }
    moving_average: true
    decay: 0.05
  }
}
layer {
  propagate_down: false
  name: "conv3_2_1x1_reduce/relu"
  type: "ReLU"
  bottom: "conv3_2_1x1_reduce"
  top: "conv3_2_1x1_reduce"
}
layer {
  propagate_down: false
  name: "conv3_2_3x3"
  type: "Convolution"
  bottom: "conv3_2_1x1_reduce"
  top: "conv3_2_3x3"
  param {
    lr_mult: 0
    decay_mult: 0
  }
  convolution_param {
    num_output: 128
    pad: 1
    kernel_size: 3
    stride: 1
    weight_filler {
      type: "msra"
    }
    bias_term: false
  }
}
layer {
  propagate_down: false
  name: "conv3_2_3x3/bn"
  type: "BN"
  bottom: "conv3_2_3x3"
  top: "conv3_2_3x3"
  param {
    lr_mult: 0
    decay_mult: 0
  }
  param {
    lr_mult: 0
    decay_mult: 0
  }
  param {
    lr_mult: 0
    decay_mult: 0
  }
  param {
    lr_mult: 0
    decay_mult: 0
  }
  bn_param {
    scale_filler {
      type: "constant"
      value: 1
    }
    shift_filler {
      type: "constant"
      value: 0
    }
    moving_average: true
    decay: 0.05
  }
}
layer {
  propagate_down: false
  name: "conv3_2_3x3/relu"
  type: "ReLU"
  bottom: "conv3_2_3x3"
  top: "conv3_2_3x3"
}
layer {
  propagate_down: false
  name: "conv3_2_1x1_increase"
  type: "Convolution"
  bottom: "conv3_2_3x3"
  top: "conv3_2_1x1_increase"
  param {
    lr_mult: 0
    decay_mult: 0
  }
  convolution_param {
    num_output: 512
    pad: 0
    kernel_size: 1
    stride: 1
    weight_filler {
      type: "msra"
    }
    bias_term: false
  }
}
layer {
  propagate_down: false
  name: "conv3_2_1x1_increase/bn"
  type: "BN"
  bottom: "conv3_2_1x1_increase"
  top: "conv3_2_1x1_increase"
  param {
    lr_mult: 0
    decay_mult: 0
  }
  param {
    lr_mult: 0
    decay_mult: 0
  }
  param {
    lr_mult: 0
    decay_mult: 0
  }
  param {
    lr_mult: 0
    decay_mult: 0
  }
  bn_param {
    scale_filler {
      type: "constant"
      value: 1
    }
    shift_filler {
      type: "constant"
      value: 0
    }
    moving_average: true
    decay: 0.05
  }
}
layer {
  propagate_down: false
  propagate_down: false
  name: "conv3_2"
  type: "Eltwise"
  bottom: "conv3_1"
  bottom: "conv3_2_1x1_increase"
  top: "conv3_2"
  eltwise_param {
    operation: SUM
  }
}
layer {
  propagate_down: false
  name: "conv3_2/relu"
  type: "ReLU"
  bottom: "conv3_2"
  top: "conv3_2"
}
layer {
  propagate_down: false
  name: "conv3_3_1x1_reduce"
  type: "Convolution"
  bottom: "conv3_2"
  top: "conv3_3_1x1_reduce"
  param {
    lr_mult: 0
    decay_mult: 0
  }
  convolution_param {
    num_output: 128
    pad: 0
    kernel_size: 1
    stride: 1
    weight_filler {
      type: "msra"
    }
    bias_term: false
  }
}
layer {
  propagate_down: false
  name: "conv3_3_1x1_reduce/bn"
  type: "BN"
  bottom: "conv3_3_1x1_reduce"
  top: "conv3_3_1x1_reduce"
  param {
    lr_mult: 0
    decay_mult: 0
  }
  param {
    lr_mult: 0
    decay_mult: 0
  }
  param {
    lr_mult: 0
    decay_mult: 0
  }
  param {
    lr_mult: 0
    decay_mult: 0
  }
  bn_param {
    scale_filler {
      type: "constant"
      value: 1
    }
    shift_filler {
      type: "constant"
      value: 0
    }
    moving_average: true
    decay: 0.05
  }
}
layer {
  propagate_down: false
  name: "conv3_3_1x1_reduce/relu"
  type: "ReLU"
  bottom: "conv3_3_1x1_reduce"
  top: "conv3_3_1x1_reduce"
}
layer {
  propagate_down: false
  name: "conv3_3_3x3"
  type: "Convolution"
  bottom: "conv3_3_1x1_reduce"
  top: "conv3_3_3x3"
  param {
    lr_mult: 0
    decay_mult: 0
  }
  convolution_param {
    num_output: 128
    pad: 1
    kernel_size: 3
    stride: 1
    weight_filler {
      type: "msra"
    }
    bias_term: false
  }
}
layer {
  propagate_down: false
  name: "conv3_3_3x3/bn"
  type: "BN"
  bottom: "conv3_3_3x3"
  top: "conv3_3_3x3"
  param {
    lr_mult: 0
    decay_mult: 0
  }
  param {
    lr_mult: 0
    decay_mult: 0
  }
  param {
    lr_mult: 0
    decay_mult: 0
  }
  param {
    lr_mult: 0
    decay_mult: 0
  }
  bn_param {
    scale_filler {
      type: "constant"
      value: 1
    }
    shift_filler {
      type: "constant"
      value: 0
    }
    moving_average: true
    decay: 0.05
  }
}
layer {
  propagate_down: false
  name: "conv3_3_3x3/relu"
  type: "ReLU"
  bottom: "conv3_3_3x3"
  top: "conv3_3_3x3"
}
layer {
  propagate_down: false
  name: "conv3_3_1x1_increase"
  type: "Convolution"
  bottom: "conv3_3_3x3"
  top: "conv3_3_1x1_increase"
  param {
    lr_mult: 0
    decay_mult: 0
  }
  convolution_param {
    num_output: 512
    pad: 0
    kernel_size: 1
    stride: 1
    weight_filler {
      type: "msra"
    }
    bias_term: false
  }
}
layer {
  propagate_down: false
  name: "conv3_3_1x1_increase/bn"
  type: "BN"
  bottom: "conv3_3_1x1_increase"
  top: "conv3_3_1x1_increase"
  param {
    lr_mult: 0
    decay_mult: 0
  }
  param {
    lr_mult: 0
    decay_mult: 0
  }
  param {
    lr_mult: 0
    decay_mult: 0
  }
  param {
    lr_mult: 0
    decay_mult: 0
  }
  bn_param {
    scale_filler {
      type: "constant"
      value: 1
    }
    shift_filler {
      type: "constant"
      value: 0
    }
    moving_average: true
    decay: 0.05
  }
}
layer {
  propagate_down: false
  propagate_down: false
  name: "conv3_3"
  type: "Eltwise"
  bottom: "conv3_2"
  bottom: "conv3_3_1x1_increase"
  top: "conv3_3"
  eltwise_param {
    operation: SUM
  }
}
layer {
  propagate_down: false
  name: "conv3_3/relu"
  type: "ReLU"
  bottom: "conv3_3"
  top: "conv3_3"
}
layer {
  propagate_down: false
  name: "conv3_4_1x1_reduce"
  type: "Convolution"
  bottom: "conv3_3"
  top: "conv3_4_1x1_reduce"
  param {
    lr_mult: 0
    decay_mult: 0
  }
  convolution_param {
    num_output: 128
    pad: 0
    kernel_size: 1
    stride: 1
    weight_filler {
      type: "msra"
    }
    bias_term: false
  }
}
layer {
  propagate_down: false
  name: "conv3_4_1x1_reduce/bn"
  type: "BN"
  bottom: "conv3_4_1x1_reduce"
  top: "conv3_4_1x1_reduce"
  param {
    lr_mult: 0
    decay_mult: 0
  }
  param {
    lr_mult: 0
    decay_mult: 0
  }
  param {
    lr_mult: 0
    decay_mult: 0
  }
  param {
    lr_mult: 0
    decay_mult: 0
  }
  bn_param {
    scale_filler {
      type: "constant"
      value: 1
    }
    shift_filler {
      type: "constant"
      value: 0
    }
    moving_average: true
    decay: 0.05
  }
}
layer {
  propagate_down: false
  name: "conv3_4_1x1_reduce/relu"
  type: "ReLU"
  bottom: "conv3_4_1x1_reduce"
  top: "conv3_4_1x1_reduce"
}
layer {
  propagate_down: false
  name: "conv3_4_3x3"
  type: "Convolution"
  bottom: "conv3_4_1x1_reduce"
  top: "conv3_4_3x3"
  param {
    lr_mult: 0
    decay_mult: 0
  }
  convolution_param {
    num_output: 128
    pad: 1
    kernel_size: 3
    stride: 1
    weight_filler {
      type: "msra"
    }
    bias_term: false
  }
}
layer {
  propagate_down: false
  name: "conv3_4_3x3/bn"
  type: "BN"
  bottom: "conv3_4_3x3"
  top: "conv3_4_3x3"
  param {
    lr_mult: 0
    decay_mult: 0
  }
  param {
    lr_mult: 0
    decay_mult: 0
  }
  param {
    lr_mult: 0
    decay_mult: 0
  }
  param {
    lr_mult: 0
    decay_mult: 0
  }
  bn_param {
    scale_filler {
      type: "constant"
      value: 1
    }
    shift_filler {
      type: "constant"
      value: 0
    }
    moving_average: true
    decay: 0.05
  }
}
layer {
  propagate_down: false
  name: "conv3_4_3x3/relu"
  type: "ReLU"
  bottom: "conv3_4_3x3"
  top: "conv3_4_3x3"
}
layer {
  propagate_down: false
  name: "conv3_4_1x1_increase"
  type: "Convolution"
  bottom: "conv3_4_3x3"
  top: "conv3_4_1x1_increase"
  param {
    lr_mult: 0
    decay_mult: 0
  }
  convolution_param {
    num_output: 512
    pad: 0
    kernel_size: 1
    stride: 1
    weight_filler {
      type: "msra"
    }
    bias_term: false
  }
}
layer {
  propagate_down: false
  name: "conv3_4_1x1_increase/bn"
  type: "BN"
  bottom: "conv3_4_1x1_increase"
  top: "conv3_4_1x1_increase"
  param {
    lr_mult: 0
    decay_mult: 0
  }
  param {
    lr_mult: 0
    decay_mult: 0
  }
  param {
    lr_mult: 0
    decay_mult: 0
  }
  param {
    lr_mult: 0
    decay_mult: 0
  }
  bn_param {
    scale_filler {
      type: "constant"
      value: 1
    }
    shift_filler {
      type: "constant"
      value: 0
    }
    moving_average: true
    decay: 0.05
  }
}
layer {
  propagate_down: false
  propagate_down: false
  name: "conv3_4"
  type: "Eltwise"
  bottom: "conv3_3"
  bottom: "conv3_4_1x1_increase"
  top: "conv3_4"
  eltwise_param {
    operation: SUM
  }
}
layer {
  propagate_down: false
  name: "conv3_4/relu"
  type: "ReLU"
  bottom: "conv3_4"
  top: "conv3_4"
}
layer {
  propagate_down: false
  name: "conv4_1_1x1_reduce"
  type: "Convolution"
  bottom: "conv3_4"
  top: "conv4_1_1x1_reduce"
  param {
    lr_mult: 0
    decay_mult: 0
  }
  convolution_param {
    num_output: 256
    pad: 0
    kernel_size: 1
    stride: 1
    weight_filler {
      type: "msra"
    }
    bias_term: false
  }
}
layer {
  propagate_down: false
  name: "conv4_1_1x1_reduce/bn"
  type: "BN"
  bottom: "conv4_1_1x1_reduce"
  top: "conv4_1_1x1_reduce"
  param {
    lr_mult: 0
    decay_mult: 0
  }
  param {
    lr_mult: 0
    decay_mult: 0
  }
  param {
    lr_mult: 0
    decay_mult: 0
  }
  param {
    lr_mult: 0
    decay_mult: 0
  }
  bn_param {
    scale_filler {
      type: "constant"
      value: 1
    }
    shift_filler {
      type: "constant"
      value: 0
    }
    moving_average: true
    decay: 0.05
  }
}
layer {
  propagate_down: false
  name: "conv4_1_1x1_reduce/relu"
  type: "ReLU"
  bottom: "conv4_1_1x1_reduce"
  top: "conv4_1_1x1_reduce"
}
layer {
  propagate_down: false
  name: "conv4_1_3x3"
  type: "HoleConvolution"
  bottom: "conv4_1_1x1_reduce"
  top: "conv4_1_3x3"
  param {
    lr_mult: 0
    decay_mult: 0
  }
  convolution_param {
    num_output: 256
    pad: 2
    hole: 2
    kernel_size: 3
    stride: 1
    weight_filler {
      type: "msra"
    }
    bias_term: false
  }
}
layer {
  propagate_down: false
  name: "conv4_1_3x3/bn"
  type: "BN"
  bottom: "conv4_1_3x3"
  top: "conv4_1_3x3"
  param {
    lr_mult: 0
    decay_mult: 0
  }
  param {
    lr_mult: 0
    decay_mult: 0
  }
  param {
    lr_mult: 0
    decay_mult: 0
  }
  param {
    lr_mult: 0
    decay_mult: 0
  }
  bn_param {
    scale_filler {
      type: "constant"
      value: 1
    }
    shift_filler {
      type: "constant"
      value: 0
    }
    moving_average: true
    decay: 0.05
  }
}
layer {
  propagate_down: false
  name: "conv4_1_3x3/relu"
  type: "ReLU"
  bottom: "conv4_1_3x3"
  top: "conv4_1_3x3"
}
layer {
  propagate_down: false
  name: "conv4_1_1x1_increase"
  type: "Convolution"
  bottom: "conv4_1_3x3"
  top: "conv4_1_1x1_increase"
  param {
    lr_mult: 0
    decay_mult: 0
  }
  convolution_param {
    num_output: 1024
    pad: 0
    kernel_size: 1
    stride: 1
    weight_filler {
      type: "msra"
    }
    bias_term: false
  }
}
layer {
  propagate_down: false
  name: "conv4_1_1x1_increase/bn"
  type: "BN"
  bottom: "conv4_1_1x1_increase"
  top: "conv4_1_1x1_increase"
  param {
    lr_mult: 0
    decay_mult: 0
  }
  param {
    lr_mult: 0
    decay_mult: 0
  }
  param {
    lr_mult: 0
    decay_mult: 0
  }
  param {
    lr_mult: 0
    decay_mult: 0
  }
  bn_param {
    scale_filler {
      type: "constant"
      value: 1
    }
    shift_filler {
      type: "constant"
      value: 0
    }
    moving_average: true
    decay: 0.05
  }
}
layer {
  propagate_down: false
  name: "conv4_1_1x1_proj"
  type: "Convolution"
  bottom: "conv3_4"
  top: "conv4_1_1x1_proj"
  param {
    lr_mult: 0
    decay_mult: 0
  }
  convolution_param {
    num_output: 1024
    pad: 0
    kernel_size: 1
    stride: 1
    weight_filler {
      type: "msra"
    }
    bias_term: false
  }
}
layer {
  propagate_down: false
  name: "conv4_1_1x1_proj/bn"
  type: "BN"
  bottom: "conv4_1_1x1_proj"
  top: "conv4_1_1x1_proj"
  param {
    lr_mult: 0
    decay_mult: 0
  }
  param {
    lr_mult: 0
    decay_mult: 0
  }
  param {
    lr_mult: 0
    decay_mult: 0
  }
  param {
    lr_mult: 0
    decay_mult: 0
  }
  bn_param {
    scale_filler {
      type: "constant"
      value: 1
    }
    shift_filler {
      type: "constant"
      value: 0
    }
    moving_average: true
    decay: 0.05
  }
}
layer {
  propagate_down: false
  propagate_down: false
  name: "conv4_1"
  type: "Eltwise"
  bottom: "conv4_1_1x1_proj"
  bottom: "conv4_1_1x1_increase"
  top: "conv4_1"
  eltwise_param {
    operation: SUM
  }
}
layer {
  propagate_down: false
  name: "conv4_1/relu"
  type: "ReLU"
  bottom: "conv4_1"
  top: "conv4_1"
}
layer {
  propagate_down: false
  name: "conv4_2_1x1_reduce"
  type: "Convolution"
  bottom: "conv4_1"
  top: "conv4_2_1x1_reduce"
  param {
    lr_mult: 0
    decay_mult: 0
  }
  convolution_param {
    num_output: 256
    pad: 0
    kernel_size: 1
    stride: 1
    weight_filler {
      type: "msra"
    }
    bias_term: false
  }
}
layer {
  propagate_down: false
  name: "conv4_2_1x1_reduce/bn"
  type: "BN"
  bottom: "conv4_2_1x1_reduce"
  top: "conv4_2_1x1_reduce"
  param {
    lr_mult: 0
    decay_mult: 0
  }
  param {
    lr_mult: 0
    decay_mult: 0
  }
  param {
    lr_mult: 0
    decay_mult: 0
  }
  param {
    lr_mult: 0
    decay_mult: 0
  }
  bn_param {
    scale_filler {
      type: "constant"
      value: 1
    }
    shift_filler {
      type: "constant"
      value: 0
    }
    moving_average: true
    decay: 0.05
  }
}
layer {
  propagate_down: false
  name: "conv4_2_1x1_reduce/relu"
  type: "ReLU"
  bottom: "conv4_2_1x1_reduce"
  top: "conv4_2_1x1_reduce"
}
layer {
  propagate_down: false
  name: "conv4_2_3x3"
  type: "HoleConvolution"
  bottom: "conv4_2_1x1_reduce"
  top: "conv4_2_3x3"
  param {
    lr_mult: 0
    decay_mult: 0
  }
  convolution_param {
    num_output: 256
    pad: 2
    hole: 2
    kernel_size: 3
    stride: 1
    weight_filler {
      type: "msra"
    }
    bias_term: false
  }
}
layer {
  propagate_down: false
  name: "conv4_2_3x3/bn"
  type: "BN"
  bottom: "conv4_2_3x3"
  top: "conv4_2_3x3"
  param {
    lr_mult: 0
    decay_mult: 0
  }
  param {
    lr_mult: 0
    decay_mult: 0
  }
  param {
    lr_mult: 0
    decay_mult: 0
  }
  param {
    lr_mult: 0
    decay_mult: 0
  }
  bn_param {
    scale_filler {
      type: "constant"
      value: 1
    }
    shift_filler {
      type: "constant"
      value: 0
    }
    moving_average: true
    decay: 0.05
  }
}
layer {
  propagate_down: false
  name: "conv4_2_3x3/relu"
  type: "ReLU"
  bottom: "conv4_2_3x3"
  top: "conv4_2_3x3"
}
layer {
  propagate_down: false
  name: "conv4_2_1x1_increase"
  type: "Convolution"
  bottom: "conv4_2_3x3"
  top: "conv4_2_1x1_increase"
  param {
    lr_mult: 0
    decay_mult: 0
  }
  convolution_param {
    num_output: 1024
    pad: 0
    kernel_size: 1
    stride: 1
    weight_filler {
      type: "msra"
    }
    bias_term: false
  }
}
layer {
  propagate_down: false
  name: "conv4_2_1x1_increase/bn"
  type: "BN"
  bottom: "conv4_2_1x1_increase"
  top: "conv4_2_1x1_increase"
  param {
    lr_mult: 0
    decay_mult: 0
  }
  param {
    lr_mult: 0
    decay_mult: 0
  }
  param {
    lr_mult: 0
    decay_mult: 0
  }
  param {
    lr_mult: 0
    decay_mult: 0
  }
  bn_param {
    scale_filler {
      type: "constant"
      value: 1
    }
    shift_filler {
      type: "constant"
      value: 0
    }
    moving_average: true
    decay: 0.05
  }
}
layer {
  propagate_down: false
  propagate_down: false
  name: "conv4_2"
  type: "Eltwise"
  bottom: "conv4_1"
  bottom: "conv4_2_1x1_increase"
  top: "conv4_2"
  eltwise_param {
    operation: SUM
  }
}
layer {
  propagate_down: false
  name: "conv4_2/relu"
  type: "ReLU"
  bottom: "conv4_2"
  top: "conv4_2"
}
layer {
  propagate_down: false
  name: "conv4_3_1x1_reduce"
  type: "Convolution"
  bottom: "conv4_2"
  top: "conv4_3_1x1_reduce"
  param {
    lr_mult: 0
    decay_mult: 0
  }
  convolution_param {
    num_output: 256
    pad: 0
    kernel_size: 1
    stride: 1
    weight_filler {
      type: "msra"
    }
    bias_term: false
  }
}
layer {
  propagate_down: false
  name: "conv4_3_1x1_reduce/bn"
  type: "BN"
  bottom: "conv4_3_1x1_reduce"
  top: "conv4_3_1x1_reduce"
  param {
    lr_mult: 0
    decay_mult: 0
  }
  param {
    lr_mult: 0
    decay_mult: 0
  }
  param {
    lr_mult: 0
    decay_mult: 0
  }
  param {
    lr_mult: 0
    decay_mult: 0
  }
  bn_param {
    scale_filler {
      type: "constant"
      value: 1
    }
    shift_filler {
      type: "constant"
      value: 0
    }
    moving_average: true
    decay: 0.05
  }
}
layer {
  propagate_down: false
  name: "conv4_3_1x1_reduce/relu"
  type: "ReLU"
  bottom: "conv4_3_1x1_reduce"
  top: "conv4_3_1x1_reduce"
}
layer {
  propagate_down: false
  name: "conv4_3_3x3"
  type: "HoleConvolution"
  bottom: "conv4_3_1x1_reduce"
  top: "conv4_3_3x3"
  param {
    lr_mult: 0
    decay_mult: 0
  }
  convolution_param {
    num_output: 256
    pad: 2
    hole: 2
    kernel_size: 3
    stride: 1
    weight_filler {
      type: "msra"
    }
    bias_term: false
  }
}
layer {
  propagate_down: false
  name: "conv4_3_3x3/bn"
  type: "BN"
  bottom: "conv4_3_3x3"
  top: "conv4_3_3x3"
  param {
    lr_mult: 0
    decay_mult: 0
  }
  param {
    lr_mult: 0
    decay_mult: 0
  }
  param {
    lr_mult: 0
    decay_mult: 0
  }
  param {
    lr_mult: 0
    decay_mult: 0
  }
  bn_param {
    scale_filler {
      type: "constant"
      value: 1
    }
    shift_filler {
      type: "constant"
      value: 0
    }
    moving_average: true
    decay: 0.05
  }
}
layer {
  propagate_down: false
  name: "conv4_3_3x3/relu"
  type: "ReLU"
  bottom: "conv4_3_3x3"
  top: "conv4_3_3x3"
}
layer {
  propagate_down: false
  name: "conv4_3_1x1_increase"
  type: "Convolution"
  bottom: "conv4_3_3x3"
  top: "conv4_3_1x1_increase"
  param {
    lr_mult: 0
    decay_mult: 0
  }
  convolution_param {
    num_output: 1024
    pad: 0
    kernel_size: 1
    stride: 1
    weight_filler {
      type: "msra"
    }
    bias_term: false
  }
}
layer {
  propagate_down: false
  name: "conv4_3_1x1_increase/bn"
  type: "BN"
  bottom: "conv4_3_1x1_increase"
  top: "conv4_3_1x1_increase"
  param {
    lr_mult: 0
    decay_mult: 0
  }
  param {
    lr_mult: 0
    decay_mult: 0
  }
  param {
    lr_mult: 0
    decay_mult: 0
  }
  param {
    lr_mult: 0
    decay_mult: 0
  }
  bn_param {
    scale_filler {
      type: "constant"
      value: 1
    }
    shift_filler {
      type: "constant"
      value: 0
    }
    moving_average: true
    decay: 0.05
  }
}
layer {
  propagate_down: false
  propagate_down: false
  name: "conv4_3"
  type: "Eltwise"
  bottom: "conv4_2"
  bottom: "conv4_3_1x1_increase"
  top: "conv4_3"
  eltwise_param {
    operation: SUM
  }
}
layer {
  propagate_down: false
  name: "conv4_3/relu"
  type: "ReLU"
  bottom: "conv4_3"
  top: "conv4_3"
}
layer {
  propagate_down: false
  name: "conv4_4_1x1_reduce"
  type: "Convolution"
  bottom: "conv4_3"
  top: "conv4_4_1x1_reduce"
  param {
    lr_mult: 0
    decay_mult: 0
  }
  convolution_param {
    num_output: 256
    pad: 0
    kernel_size: 1
    stride: 1
    weight_filler {
      type: "msra"
    }
    bias_term: false
  }
}
layer {
  propagate_down: false
  name: "conv4_4_1x1_reduce/bn"
  type: "BN"
  bottom: "conv4_4_1x1_reduce"
  top: "conv4_4_1x1_reduce"
  param {
    lr_mult: 0
    decay_mult: 0
  }
  param {
    lr_mult: 0
    decay_mult: 0
  }
  param {
    lr_mult: 0
    decay_mult: 0
  }
  param {
    lr_mult: 0
    decay_mult: 0
  }
  bn_param {
    scale_filler {
      type: "constant"
      value: 1
    }
    shift_filler {
      type: "constant"
      value: 0
    }
    moving_average: true
    decay: 0.05
  }
}
layer {
  propagate_down: false
  name: "conv4_4_1x1_reduce/relu"
  type: "ReLU"
  bottom: "conv4_4_1x1_reduce"
  top: "conv4_4_1x1_reduce"
}
layer {
  propagate_down: false
  name: "conv4_4_3x3"
  type: "HoleConvolution"
  bottom: "conv4_4_1x1_reduce"
  top: "conv4_4_3x3"
  param {
    lr_mult: 0
    decay_mult: 0
  }
  convolution_param {
    num_output: 256
    pad: 2
    hole: 2
    kernel_size: 3
    stride: 1
    weight_filler {
      type: "msra"
    }
    bias_term: false
  }
}
layer {
  propagate_down: false
  name: "conv4_4_3x3/bn"
  type: "BN"
  bottom: "conv4_4_3x3"
  top: "conv4_4_3x3"
  param {
    lr_mult: 0
    decay_mult: 0
  }
  param {
    lr_mult: 0
    decay_mult: 0
  }
  param {
    lr_mult: 0
    decay_mult: 0
  }
  param {
    lr_mult: 0
    decay_mult: 0
  }
  bn_param {
    scale_filler {
      type: "constant"
      value: 1
    }
    shift_filler {
      type: "constant"
      value: 0
    }
    moving_average: true
    decay: 0.05
  }
}
layer {
  propagate_down: false
  name: "conv4_4_3x3/relu"
  type: "ReLU"
  bottom: "conv4_4_3x3"
  top: "conv4_4_3x3"
}
layer {
  propagate_down: false
  name: "conv4_4_1x1_increase"
  type: "Convolution"
  bottom: "conv4_4_3x3"
  top: "conv4_4_1x1_increase"
  param {
    lr_mult: 0
    decay_mult: 0
  }
  convolution_param {
    num_output: 1024
    pad: 0
    kernel_size: 1
    stride: 1
    weight_filler {
      type: "msra"
    }
    bias_term: false
  }
}
layer {
  propagate_down: false
  name: "conv4_4_1x1_increase/bn"
  type: "BN"
  bottom: "conv4_4_1x1_increase"
  top: "conv4_4_1x1_increase"
  param {
    lr_mult: 0
    decay_mult: 0
  }
  param {
    lr_mult: 0
    decay_mult: 0
  }
  param {
    lr_mult: 0
    decay_mult: 0
  }
  param {
    lr_mult: 0
    decay_mult: 0
  }
  bn_param {
    scale_filler {
      type: "constant"
      value: 1
    }
    shift_filler {
      type: "constant"
      value: 0
    }
    moving_average: true
    decay: 0.05
  }
}
layer {
  propagate_down: false
  propagate_down: false
  name: "conv4_4"
  type: "Eltwise"
  bottom: "conv4_3"
  bottom: "conv4_4_1x1_increase"
  top: "conv4_4"
  eltwise_param {
    operation: SUM
  }
}
layer {
  propagate_down: false
  name: "conv4_4/relu"
  type: "ReLU"
  bottom: "conv4_4"
  top: "conv4_4"
}
layer {
  propagate_down: false
  name: "conv4_5_1x1_reduce"
  type: "Convolution"
  bottom: "conv4_4"
  top: "conv4_5_1x1_reduce"
  param {
    lr_mult: 0
    decay_mult: 0
  }
  convolution_param {
    num_output: 256
    pad: 0
    kernel_size: 1
    stride: 1
    weight_filler {
      type: "msra"
    }
    bias_term: false
  }
}
layer {
  propagate_down: false
  name: "conv4_5_1x1_reduce/bn"
  type: "BN"
  bottom: "conv4_5_1x1_reduce"
  top: "conv4_5_1x1_reduce"
  param {
    lr_mult: 0
    decay_mult: 0
  }
  param {
    lr_mult: 0
    decay_mult: 0
  }
  param {
    lr_mult: 0
    decay_mult: 0
  }
  param {
    lr_mult: 0
    decay_mult: 0
  }
  bn_param {
    scale_filler {
      type: "constant"
      value: 1
    }
    shift_filler {
      type: "constant"
      value: 0
    }
    moving_average: true
    decay: 0.05
  }
}
layer {
  propagate_down: false
  name: "conv4_5_1x1_reduce/relu"
  type: "ReLU"
  bottom: "conv4_5_1x1_reduce"
  top: "conv4_5_1x1_reduce"
}
layer {
  propagate_down: false
  name: "conv4_5_3x3"
  type: "HoleConvolution"
  bottom: "conv4_5_1x1_reduce"
  top: "conv4_5_3x3"
  param {
    lr_mult: 0
    decay_mult: 0
  }
  convolution_param {
    num_output: 256
    pad: 2
    hole: 2
    kernel_size: 3
    stride: 1
    weight_filler {
      type: "msra"
    }
    bias_term: false
  }
}
layer {
  propagate_down: false
  name: "conv4_5_3x3/bn"
  type: "BN"
  bottom: "conv4_5_3x3"
  top: "conv4_5_3x3"
  param {
    lr_mult: 0
    decay_mult: 0
  }
  param {
    lr_mult: 0
    decay_mult: 0
  }
  param {
    lr_mult: 0
    decay_mult: 0
  }
  param {
    lr_mult: 0
    decay_mult: 0
  }
  bn_param {
    scale_filler {
      type: "constant"
      value: 1
    }
    shift_filler {
      type: "constant"
      value: 0
    }
    moving_average: true
    decay: 0.05
  }
}
layer {
  propagate_down: false
  name: "conv4_5_3x3/relu"
  type: "ReLU"
  bottom: "conv4_5_3x3"
  top: "conv4_5_3x3"
}
layer {
  propagate_down: false
  name: "conv4_5_1x1_increase"
  type: "Convolution"
  bottom: "conv4_5_3x3"
  top: "conv4_5_1x1_increase"
  param {
    lr_mult: 0
    decay_mult: 0
  }
  convolution_param {
    num_output: 1024
    pad: 0
    kernel_size: 1
    stride: 1
    weight_filler {
      type: "msra"
    }
    bias_term: false
  }
}
layer {
  propagate_down: false
  name: "conv4_5_1x1_increase/bn"
  type: "BN"
  bottom: "conv4_5_1x1_increase"
  top: "conv4_5_1x1_increase"
  param {
    lr_mult: 0
    decay_mult: 0
  }
  param {
    lr_mult: 0
    decay_mult: 0
  }
  param {
    lr_mult: 0
    decay_mult: 0
  }
  param {
    lr_mult: 0
    decay_mult: 0
  }
  bn_param {
    scale_filler {
      type: "constant"
      value: 1
    }
    shift_filler {
      type: "constant"
      value: 0
    }
    moving_average: true
    decay: 0.05
  }
}
layer {
  propagate_down: false
  propagate_down: false
  name: "conv4_5"
  type: "Eltwise"
  bottom: "conv4_4"
  bottom: "conv4_5_1x1_increase"
  top: "conv4_5"
  eltwise_param {
    operation: SUM
  }
}
layer {
  propagate_down: false
  name: "conv4_5/relu"
  type: "ReLU"
  bottom: "conv4_5"
  top: "conv4_5"
}
layer {
  propagate_down: false
  name: "conv4_6_1x1_reduce"
  type: "Convolution"
  bottom: "conv4_5"
  top: "conv4_6_1x1_reduce"
  param {
    lr_mult: 0
    decay_mult: 0
  }
  convolution_param {
    num_output: 256
    pad: 0
    kernel_size: 1
    stride: 1
    weight_filler {
      type: "msra"
    }
    bias_term: false
  }
}
layer {
  propagate_down: false
  name: "conv4_6_1x1_reduce/bn"
  type: "BN"
  bottom: "conv4_6_1x1_reduce"
  top: "conv4_6_1x1_reduce"
  param {
    lr_mult: 0
    decay_mult: 0
  }
  param {
    lr_mult: 0
    decay_mult: 0
  }
  param {
    lr_mult: 0
    decay_mult: 0
  }
  param {
    lr_mult: 0
    decay_mult: 0
  }
  bn_param {
    scale_filler {
      type: "constant"
      value: 1
    }
    shift_filler {
      type: "constant"
      value: 0
    }
    moving_average: true
    decay: 0.05
  }
}
layer {
  propagate_down: false
  name: "conv4_6_1x1_reduce/relu"
  type: "ReLU"
  bottom: "conv4_6_1x1_reduce"
  top: "conv4_6_1x1_reduce"
}
layer {
  propagate_down: false
  name: "conv4_6_3x3"
  type: "HoleConvolution"
  bottom: "conv4_6_1x1_reduce"
  top: "conv4_6_3x3"
  param {
    lr_mult: 0
    decay_mult: 0
  }
  convolution_param {
    num_output: 256
    pad: 2
    hole: 2
    kernel_size: 3
    stride: 1
    weight_filler {
      type: "msra"
    }
    bias_term: false
  }
}
layer {
  propagate_down: false
  name: "conv4_6_3x3/bn"
  type: "BN"
  bottom: "conv4_6_3x3"
  top: "conv4_6_3x3"
  param {
    lr_mult: 0
    decay_mult: 0
  }
  param {
    lr_mult: 0
    decay_mult: 0
  }
  param {
    lr_mult: 0
    decay_mult: 0
  }
  param {
    lr_mult: 0
    decay_mult: 0
  }
  bn_param {
    scale_filler {
      type: "constant"
      value: 1
    }
    shift_filler {
      type: "constant"
      value: 0
    }
    moving_average: true
    decay: 0.05
  }
}
layer {
  propagate_down: false
  name: "conv4_6_3x3/relu"
  type: "ReLU"
  bottom: "conv4_6_3x3"
  top: "conv4_6_3x3"
}
layer {
  propagate_down: false
  name: "conv4_6_1x1_increase"
  type: "Convolution"
  bottom: "conv4_6_3x3"
  top: "conv4_6_1x1_increase"
  param {
    lr_mult: 0
    decay_mult: 0
  }
  convolution_param {
    num_output: 1024
    pad: 0
    kernel_size: 1
    stride: 1
    weight_filler {
      type: "msra"
    }
    bias_term: false
  }
}
layer {
  propagate_down: false
  name: "conv4_6_1x1_increase/bn"
  type: "BN"
  bottom: "conv4_6_1x1_increase"
  top: "conv4_6_1x1_increase"
  param {
    lr_mult: 0
    decay_mult: 0
  }
  param {
    lr_mult: 0
    decay_mult: 0
  }
  param {
    lr_mult: 0
    decay_mult: 0
  }
  param {
    lr_mult: 0
    decay_mult: 0
  }
  bn_param {
    scale_filler {
      type: "constant"
      value: 1
    }
    shift_filler {
      type: "constant"
      value: 0
    }
    moving_average: true
    decay: 0.05
  }
}
layer {
  propagate_down: false
  propagate_down: false
  name: "conv4_6"
  type: "Eltwise"
  bottom: "conv4_5"
  bottom: "conv4_6_1x1_increase"
  top: "conv4_6"
  eltwise_param {
    operation: SUM
  }
}
layer {
  propagate_down: false
  name: "conv4_6/relu"
  type: "ReLU"
  bottom: "conv4_6"
  top: "conv4_6"
}
layer {
  propagate_down: false
  name: "conv5_1_1x1_reduce"
  type: "Convolution"
  bottom: "conv4_6"
  top: "conv5_1_1x1_reduce"
  param {
    lr_mult: 0
    decay_mult: 0
  }
  convolution_param {
    num_output: 512
    pad: 0
    kernel_size: 1
    stride: 1
    weight_filler {
      type: "msra"
    }
    bias_term: false
  }
}
layer {
  propagate_down: false
  name: "conv5_1_1x1_reduce/bn"
  type: "BN"
  bottom: "conv5_1_1x1_reduce"
  top: "conv5_1_1x1_reduce"
  param {
    lr_mult: 0
    decay_mult: 0
  }
  param {
    lr_mult: 0
    decay_mult: 0
  }
  param {
    lr_mult: 0
    decay_mult: 0
  }
  param {
    lr_mult: 0
    decay_mult: 0
  }
  bn_param {
    scale_filler {
      type: "constant"
      value: 1
    }
    shift_filler {
      type: "constant"
      value: 0
    }
    moving_average: true
    decay: 0.05
  }
}
layer {
  propagate_down: false
  name: "conv5_1_1x1_reduce/relu"
  type: "ReLU"
  bottom: "conv5_1_1x1_reduce"
  top: "conv5_1_1x1_reduce"
}
layer {
  propagate_down: false
  name: "conv5_1_3x3"
  type: "HoleConvolution"
  bottom: "conv5_1_1x1_reduce"
  top: "conv5_1_3x3"
  param {
    lr_mult: 0
    decay_mult: 0
  }
  convolution_param {
    num_output: 512
    pad: 4
    hole: 4
    kernel_size: 3
    stride: 1
    weight_filler {
      type: "msra"
    }
    bias_term: false
  }
}
layer {
  propagate_down: false
  name: "conv5_1_3x3/bn"
  type: "BN"
  bottom: "conv5_1_3x3"
  top: "conv5_1_3x3"
  param {
    lr_mult: 0
    decay_mult: 0
  }
  param {
    lr_mult: 0
    decay_mult: 0
  }
  param {
    lr_mult: 0
    decay_mult: 0
  }
  param {
    lr_mult: 0
    decay_mult: 0
  }
  bn_param {
    scale_filler {
      type: "constant"
      value: 1
    }
    shift_filler {
      type: "constant"
      value: 0
    }
    moving_average: true
    decay: 0.05
  }
}
layer {
  propagate_down: false
  name: "conv5_1_3x3/relu"
  type: "ReLU"
  bottom: "conv5_1_3x3"
  top: "conv5_1_3x3"
}
layer {
  propagate_down: false
  name: "conv5_1_1x1_increase"
  type: "Convolution"
  bottom: "conv5_1_3x3"
  top: "conv5_1_1x1_increase"
  param {
    lr_mult: 0
    decay_mult: 0
  }
  convolution_param {
    num_output: 2048
    pad: 0
    kernel_size: 1
    stride: 1
    weight_filler {
      type: "msra"
    }
    bias_term: false
  }
}
layer {
  propagate_down: false
  name: "conv5_1_1x1_increase/bn"
  type: "BN"
  bottom: "conv5_1_1x1_increase"
  top: "conv5_1_1x1_increase"
  param {
    lr_mult: 0
    decay_mult: 0
  }
  param {
    lr_mult: 0
    decay_mult: 0
  }
  param {
    lr_mult: 0
    decay_mult: 0
  }
  param {
    lr_mult: 0
    decay_mult: 0
  }
  bn_param {
    scale_filler {
      type: "constant"
      value: 1
    }
    shift_filler {
      type: "constant"
      value: 0
    }
    moving_average: true
    decay: 0.05
  }
}
layer {
  propagate_down: false
  name: "conv5_1_1x1_proj"
  type: "Convolution"
  bottom: "conv4_6"
  top: "conv5_1_1x1_proj"
  param {
    lr_mult: 0
    decay_mult: 0
  }
  convolution_param {
    num_output: 2048
    pad: 0
    kernel_size: 1
    stride: 1
    weight_filler {
      type: "msra"
    }
    bias_term: false
  }
}
layer {
  propagate_down: false
  name: "conv5_1_1x1_proj/bn"
  type: "BN"
  bottom: "conv5_1_1x1_proj"
  top: "conv5_1_1x1_proj"
  param {
    lr_mult: 0
    decay_mult: 0
  }
  param {
    lr_mult: 0
    decay_mult: 0
  }
  param {
    lr_mult: 0
    decay_mult: 0
  }
  param {
    lr_mult: 0
    decay_mult: 0
  }
  bn_param {
    scale_filler {
      type: "constant"
      value: 1
    }
    shift_filler {
      type: "constant"
      value: 0
    }
    moving_average: true
    decay: 0.05
  }
}
layer {
  propagate_down: false
  propagate_down: false
  name: "conv5_1"
  type: "Eltwise"
  bottom: "conv5_1_1x1_proj"
  bottom: "conv5_1_1x1_increase"
  top: "conv5_1"
  eltwise_param {
    operation: SUM
  }
}
layer {
  propagate_down: false
  name: "conv5_1/relu"
  type: "ReLU"
  bottom: "conv5_1"
  top: "conv5_1"
}
layer {
  propagate_down: false
  name: "conv5_2_1x1_reduce"
  type: "Convolution"
  bottom: "conv5_1"
  top: "conv5_2_1x1_reduce"
  param {
    lr_mult: 0
    decay_mult: 0
  }
  convolution_param {
    num_output: 512
    pad: 0
    kernel_size: 1
    stride: 1
    weight_filler {
      type: "msra"
    }
    bias_term: false
  }
}
layer {
  propagate_down: false
  name: "conv5_2_1x1_reduce/bn"
  type: "BN"
  bottom: "conv5_2_1x1_reduce"
  top: "conv5_2_1x1_reduce"
  param {
    lr_mult: 0
    decay_mult: 0
  }
  param {
    lr_mult: 0
    decay_mult: 0
  }
  param {
    lr_mult: 0
    decay_mult: 0
  }
  param {
    lr_mult: 0
    decay_mult: 0
  }
  bn_param {
    scale_filler {
      type: "constant"
      value: 1
    }
    shift_filler {
      type: "constant"
      value: 0
    }
    moving_average: true
    decay: 0.05
  }
}
layer {
  propagate_down: false
  name: "conv5_2_1x1_reduce/relu"
  type: "ReLU"
  bottom: "conv5_2_1x1_reduce"
  top: "conv5_2_1x1_reduce"
}
layer {
  propagate_down: false
  name: "conv5_2_3x3"
  type: "HoleConvolution"
  bottom: "conv5_2_1x1_reduce"
  top: "conv5_2_3x3"
  param {
    lr_mult: 0
    decay_mult: 0
  }
  convolution_param {
    num_output: 512
    pad: 4
    hole: 4
    kernel_size: 3
    stride: 1
    weight_filler {
      type: "msra"
    }
    bias_term: false
  }
}
layer {
  propagate_down: false
  name: "conv5_2_3x3/bn"
  type: "BN"
  bottom: "conv5_2_3x3"
  top: "conv5_2_3x3"
  param {
    lr_mult: 0
    decay_mult: 0
  }
  param {
    lr_mult: 0
    decay_mult: 0
  }
  param {
    lr_mult: 0
    decay_mult: 0
  }
  param {
    lr_mult: 0
    decay_mult: 0
  }
  bn_param {
    scale_filler {
      type: "constant"
      value: 1
    }
    shift_filler {
      type: "constant"
      value: 0
    }
    moving_average: true
    decay: 0.05
  }
}
layer {
  propagate_down: false
  name: "conv5_2_3x3/relu"
  type: "ReLU"
  bottom: "conv5_2_3x3"
  top: "conv5_2_3x3"
}
layer {
  propagate_down: false
  name: "conv5_2_1x1_increase"
  type: "Convolution"
  bottom: "conv5_2_3x3"
  top: "conv5_2_1x1_increase"
  param {
    lr_mult: 0
    decay_mult: 0
  }
  convolution_param {
    num_output: 2048
    pad: 0
    kernel_size: 1
    stride: 1
    weight_filler {
      type: "msra"
    }
    bias_term: false
  }
}
layer {
  propagate_down: false
  name: "conv5_2_1x1_increase/bn"
  type: "BN"
  bottom: "conv5_2_1x1_increase"
  top: "conv5_2_1x1_increase"
  param {
    lr_mult: 0
    decay_mult: 0
  }
  param {
    lr_mult: 0
    decay_mult: 0
  }
  param {
    lr_mult: 0
    decay_mult: 0
  }
  param {
    lr_mult: 0
    decay_mult: 0
  }
  bn_param {
    scale_filler {
      type: "constant"
      value: 1
    }
    shift_filler {
      type: "constant"
      value: 0
    }
    moving_average: true
    decay: 0.05
  }
}
layer {
  propagate_down: false
  propagate_down: false
  name: "conv5_2"
  type: "Eltwise"
  bottom: "conv5_1"
  bottom: "conv5_2_1x1_increase"
  top: "conv5_2"
  eltwise_param {
    operation: SUM
  }
}
layer {
  propagate_down: false
  name: "conv5_2/relu"
  type: "ReLU"
  bottom: "conv5_2"
  top: "conv5_2"
}
layer {
  propagate_down: false
  name: "conv5_3_1x1_reduce"
  type: "Convolution"
  bottom: "conv5_2"
  top: "conv5_3_1x1_reduce"
  param {
    lr_mult: 0
    decay_mult: 0
  }
  convolution_param {
    num_output: 512
    pad: 0
    kernel_size: 1
    stride: 1
    weight_filler {
      type: "msra"
    }
    bias_term: false
  }
}
layer {
  propagate_down: false
  name: "conv5_3_1x1_reduce/bn"
  type: "BN"
  bottom: "conv5_3_1x1_reduce"
  top: "conv5_3_1x1_reduce"
  param {
    lr_mult: 0
    decay_mult: 0
  }
  param {
    lr_mult: 0
    decay_mult: 0
  }
  param {
    lr_mult: 0
    decay_mult: 0
  }
  param {
    lr_mult: 0
    decay_mult: 0
  }
  bn_param {
    scale_filler {
      type: "constant"
      value: 1
    }
    shift_filler {
      type: "constant"
      value: 0
    }
    moving_average: true
    decay: 0.05
  }
}
layer {
  propagate_down: false
  name: "conv5_3_1x1_reduce/relu"
  type: "ReLU"
  bottom: "conv5_3_1x1_reduce"
  top: "conv5_3_1x1_reduce"
}
layer {
  propagate_down: false
  name: "conv5_3_3x3"
  type: "HoleConvolution"
  bottom: "conv5_3_1x1_reduce"
  top: "conv5_3_3x3"
  param {
    lr_mult: 0
    decay_mult: 0
  }
  convolution_param {
    num_output: 512
    pad: 4
    hole: 4
    kernel_size: 3
    stride: 1
    weight_filler {
      type: "msra"
    }
    bias_term: false
  }
}
layer {
  propagate_down: false
  name: "conv5_3_3x3/bn"
  type: "BN"
  bottom: "conv5_3_3x3"
  top: "conv5_3_3x3"
  param {
    lr_mult: 0
    decay_mult: 0
  }
  param {
    lr_mult: 0
    decay_mult: 0
  }
  param {
    lr_mult: 0
    decay_mult: 0
  }
  param {
    lr_mult: 0
    decay_mult: 0
  }
  bn_param {
    scale_filler {
      type: "constant"
      value: 1
    }
    shift_filler {
      type: "constant"
      value: 0
    }
    moving_average: true
    decay: 0.05
  }
}
layer {
  propagate_down: false
  name: "conv5_3_3x3/relu"
  type: "ReLU"
  bottom: "conv5_3_3x3"
  top: "conv5_3_3x3"
}
layer {
  propagate_down: false
  name: "conv5_3_1x1_increase"
  type: "Convolution"
  bottom: "conv5_3_3x3"
  top: "conv5_3_1x1_increase"
  param {
    lr_mult: 0
    decay_mult: 0
  }
  convolution_param {
    num_output: 2048
    pad: 0
    kernel_size: 1
    stride: 1
    weight_filler {
      type: "msra"
    }
    bias_term: false
  }
}
layer {
  propagate_down: false
  name: "conv5_3_1x1_increase/bn"
  type: "BN"
  bottom: "conv5_3_1x1_increase"
  top: "conv5_3_1x1_increase"
  param {
    lr_mult: 0
    decay_mult: 0
  }
  param {
    lr_mult: 0
    decay_mult: 0
  }
  param {
    lr_mult: 0
    decay_mult: 0
  }
  param {
    lr_mult: 0
    decay_mult: 0
  }
  bn_param {
    scale_filler {
      type: "constant"
      value: 1
    }
    shift_filler {
      type: "constant"
      value: 0
    }
    moving_average: true
    decay: 0.05
  }
}
layer {
  propagate_down: false
  propagate_down: false
  name: "conv5_3"
  type: "Eltwise"
  bottom: "conv5_2"
  bottom: "conv5_3_1x1_increase"
  top: "conv5_3"
  eltwise_param {
    operation: SUM
  }
}
layer {
  propagate_down: false
  name: "conv5_3/relu"
  type: "ReLU"
  bottom: "conv5_3"
  top: "conv5_3"
}

layer {
  name: "conv5_3_pool1"
  type: "Pooling"
  bottom: "conv5_3"
  top: "conv5_3_pool1"
  pooling_param {
    pool: AVE
    kernel_h: 48
    kernel_w: 156
    stride_h: 48
    stride_w: 156
  }
}
layer {
  name: "conv5_3_pool1_interp"
  type: "Interp"
  bottom: "conv5_3_pool1"
  top: "conv5_3_pool1_interp"
  interp_param {
    height: 48
    width: 156
  }
}
layer {
  name: "conv5_3_pool2"
  type: "Pooling"
  bottom: "conv5_3"
  top: "conv5_3_pool2"
  pooling_param {
    pool: AVE
    kernel_h: 24
    kernel_w: 78
    stride_h: 23
    stride_w: 78
  }
}
layer {
  name: "conv5_3_pool2_interp"
  type: "Interp"
  bottom: "conv5_3_pool2"
  top: "conv5_3_pool2_interp"
  interp_param {
    height: 48
    width: 156
  }
}
layer {
  name: "conv5_3_pool3"
  type: "Pooling"
  bottom: "conv5_3"
  top: "conv5_3_pool3"
  pooling_param {
    pool: AVE
    kernel_h: 16
    kernel_w: 56
    stride_h: 16
    stride_w: 55
  }
}
layer {
  name: "conv5_3_pool3_interp"
  type: "Interp"
  bottom: "conv5_3_pool3"
  top: "conv5_3_pool3_interp"
  interp_param {
    height: 48
    width: 156
  }
}
layer {
  name: "conv5_3_pool6"
  type: "Pooling"
  bottom: "conv5_3"
  top: "conv5_3_pool6"
  pooling_param {
    pool: AVE
    kernel_h: 8
    kernel_w: 26
    stride_h: 8
    stride_w: 26
  }
}
layer {
  name: "conv5_3_pool6_interp"
  type: "Interp"
  bottom: "conv5_3_pool6"
  top: "conv5_3_pool6_interp"
  interp_param {
    height: 48
    width: 156
  }
}
layer {
  propagate_down: false
  propagate_down: false
  propagate_down: false
  propagate_down: false
  propagate_down: false
  name: "conv5_3_sum"
  type: "Eltwise"
  bottom: "conv5_3"
  bottom: "conv5_3_pool6_interp"
  bottom: "conv5_3_pool3_interp"
  bottom: "conv5_3_pool2_interp"
  bottom: "conv5_3_pool1_interp"
  top: "conv5_3_sum"
}
layer {
  propagate_down: false
  name: "conv5_4"
  type: "Convolution"
  bottom: "conv5_3_sum"
  top: "conv5_4"
  param {
    lr_mult: 0
    decay_mult: 0
  }
  convolution_param {
    num_output: 256
    kernel_size: 1
    stride: 1
    pad: 0
    weight_filler {
      type: "msra"
    }
    bias_term: false
  }
}
layer {
  propagate_down: false
  name: "conv5_4/bn"
  type: "BN"
  bottom: "conv5_4"
  top: "conv5_4"
  param {
    lr_mult: 0
    decay_mult: 0
  }
  param {
    lr_mult: 0
    decay_mult: 0
  }
  param {
    lr_mult: 0
    decay_mult: 0
  }
  param {
    lr_mult: 0
    decay_mult: 0
  }
  bn_param {
    scale_filler {
      type: "constant"
      value: 1
    }
    shift_filler {
      type: "constant"
      value: 0
    }
    moving_average: true
    decay: 0.05
  }
}
layer {
  propagate_down: false
  name: "conv5_4/relu"
  type: "ReLU"
  bottom: "conv5_4"
  top: "conv5_4"
}
layer {
  propagate_down: false
  name: "conv6"
  type: "Convolution"
  bottom: "conv5_4"
  top: "conv6"
  param {
    lr_mult: 0
    decay_mult: 0
  }
  param {
    lr_mult: 0
    decay_mult: 0
  }
  convolution_param {
    num_output: 19
    kernel_size: 1
    stride: 1
    weight_filler {
      type: "msra"
    }
  }
}
layer {
  name: "silence_conv6"
  type: "Silence"
  bottom: "conv6"
}
# layer {
#   name: "conv6_gather"
#   type: "Gather"
#   bottom: "conv6"
#   top: "conv6_gather"
# }
# layer {
#   name: "seg_label_shrink"
#   type: "Interp"
#   bottom: "left_seg_label"
#   top: "seg_label_shrink"
#   interp_param {
#     shrink_factor: 8
#   }
# }
# layer {
#   name: "seg_label_gather"
#   type: "Gather"
#   bottom: "seg_label_shrink"
#   top: "seg_label_gather"
# }
# layer {
#   name: "seg_loss"
#   type: "SoftmaxWithLoss"
#   bottom: "conv6_gather"
#   bottom: "seg_label_gather"
#   top: "seg_loss"
#   loss_weight: 0.0
#   loss_param {
#     ignore_label: 255
#     normalize: true
#   }
#   include: {phase: TRAIN}
# }
# layer {
#   name: "seg_accuracy"
#   type: "SegAccuracy"
#   bottom: "conv6_gather"
#   bottom: "seg_label_gather"
#   top: "seg_accuracy"
#   seg_accuracy_param {
#     ignore_label: 255
#   }
# }

# ------------ Disp Network --------------
# ----------- seg conv54 concat  ------------
layer {
  name: "depth_seg_conv_3x3"
  type: "Convolution"
  bottom: "conv5_4"
  top: "depth_seg_conv_3x3"
  param {
    lr_mult: 1
    decay_mult: 1
  }
  convolution_param {
    num_output: 128
    pad: 1
    kernel_size: 3
    stride: 1
    weight_filler {
      type: "msra"
    }
    bias_term: false
  }
}
layer {
  name: "depth_seg_conv_3x3/bn"
  type: "BN"
  bottom: "depth_seg_conv_3x3"
  top: "depth_seg_conv_3x3"
  param {
    lr_mult: 1
    decay_mult: 0
  }
  param {
    lr_mult: 1
    decay_mult: 0
  }
  param {
    lr_mult: 0
    decay_mult: 0
  }
  param {
    lr_mult: 0
    decay_mult: 0
  }
  bn_param {
    scale_filler {
      type: "constant"
      value: 1
    }
    shift_filler {
      type: "constant"
      value: 0
    }
    moving_average: true
    decay: 0.05
  }
}
layer {
  name: "depth_seg_conv_3x3/relu"
  type: "ReLU"
  bottom: "depth_seg_conv_3x3"
  top: "depth_seg_conv_3x3"
}
layer {
  name: "depth_seg_deconv"
  type: "Deconvolution"
  bottom: "depth_seg_conv_3x3"
  top: "depth_seg_deconv"
  param {
    lr_mult: 1
    decay_mult: 1
  }
  convolution_param {
    num_output: 64
    pad: 1
    kernel_size: 3
    stride: 2
    weight_filler {
      type: "msra"
    }
    bias_term: false
  }
}
layer {
  name: "depth_seg_deconv/bn"
  type: "BN"
  bottom: "depth_seg_deconv"
  top: "depth_seg_deconv"
  param {
    lr_mult: 1
    decay_mult: 0
  }
  param {
    lr_mult: 1
    decay_mult: 0
  }
  param {
    lr_mult: 0
    decay_mult: 0
  }
  param {
    lr_mult: 0
    decay_mult: 0
  }
  bn_param {
    scale_filler {
      type: "constant"
      value: 1
    }
    shift_filler {
      type: "constant"
      value: 0
    }
    moving_average: true
    decay: 0.05
  }
}
layer {
  name: "depth_seg_deconv/relu"
  type: "ReLU"
  bottom: "depth_seg_deconv"
  top: "depth_seg_deconv"
}
# ----------- conv13 corr  ------------
# depth conv pre
layer {
  name: "depth_conv_pre_3x3"
  type: "Convolution"
  bottom: "conv1_3_3x3"
  top: "depth_conv_pre_3x3"
  param {
    lr_mult: 1
    decay_mult: 1
  }
  convolution_param {
    num_output: 128
    pad: 1
    kernel_size: 3
    stride: 1
    weight_filler {
      type: "msra"
    }
    bias_term: false
  }
}
layer {
  name: "depth_conv_pre_3x3/bn"
  type: "BN"
  bottom: "depth_conv_pre_3x3"
  top: "depth_conv_pre_3x3"
  param {
    lr_mult: 1
    decay_mult: 0
  }
  param {
    lr_mult: 1
    decay_mult: 0
  }
  param {
    lr_mult: 0
    decay_mult: 0
  }
  param {
    lr_mult: 0
    decay_mult: 0
  }
  bn_param {
    scale_filler {
      type: "constant"
      value: 1
    }
    shift_filler {
      type: "constant"
      value: 0
    }
    moving_average: true
    decay: 0.05
  }
}
layer {
  name: "depth_conv_pre_3x3/relu"
  type: "ReLU"
  bottom: "depth_conv_pre_3x3"
  top: "depth_conv_pre_3x3"
}
layer {
  name: "depth_conv1_3_slice"
  type: "Slice"
  bottom: "depth_conv_pre_3x3"
  top: "depth_conv1_3_pair1"
  top: "depth_conv1_3_pair2"
  slice_param {
    slice_point: 1
    axis: 0
  }
}
layer {
  name: "depth_conv1_3_corr"
  type: "Correlation1D"
  bottom: "depth_conv1_3_pair1"
  bottom: "depth_conv1_3_pair2"
  top: "depth_conv1_3_corr"
  correlation_param {
    pad: 96
    kernel_size: 1
    max_displacement: 96
    stride_1: 1
    stride_2: 1
    single_direction: -1
  }
}
layer {
  name: "depth_conv1_3_pair1_conv"
  type: "Convolution"
  bottom: "depth_conv1_3_pair1"
  top: "depth_conv1_3_pair1_conv"
  param {
    lr_mult: 1
    decay_mult: 1
  }
  convolution_param {
    num_output: 128
    pad: 0
    kernel_size: 1
    stride: 1
    weight_filler {
      type: "msra"
    }
    bias_term: false
  }
}
layer {
  name: "depth_conv1_3_pair1_conv/bn"
  type: "BN"
  bottom: "depth_conv1_3_pair1_conv"
  top: "depth_conv1_3_pair1_conv"
  param {
    lr_mult: 1
    decay_mult: 0
  }
  param {
    lr_mult: 1
    decay_mult: 0
  }
  param {
    lr_mult: 0
    decay_mult: 0
  }
  param {
    lr_mult: 0
    decay_mult: 0
  }
  bn_param {
    scale_filler {
      type: "constant"
      value: 1
    }
    shift_filler {
      type: "constant"
      value: 0
    }
    moving_average: true
    decay: 0.05
  }
}
layer {
  name: "depth_conv1_3_pair1_conv/relu"
  type: "ReLU"
  bottom: "depth_conv1_3_pair1_conv"
  top: "depth_conv1_3_pair1_conv"
}
layer {
  name: "depth_conv1_3_concat"
  type: "Concat"
  bottom: "depth_conv1_3_pair1_conv"
  bottom: "depth_conv1_3_corr"
  top: "depth_conv1_3_concat"
}

# ------- concat conv13 corr and seg conv54 corr --------

layer {
  name: "depth_pool1_3x3_s2"
  type: "Pooling"
  bottom: "depth_conv1_3_concat"
  top: "depth_pool1_3x3_s2"
  pooling_param {
    pool: MAX
    kernel_size: 3
    stride: 2
    pad: 1
  }
}
layer {
  name: "depth_corr_concat"
  type: "Concat"
  bottom: "depth_seg_deconv"
  bottom: "depth_pool1_3x3_s2"
  top: "depth_corr_concat"
}
layer {
  name: "depth_conv2_1_1x1_reduce"
  type: "Convolution"
  bottom: "depth_corr_concat"
  top: "depth_conv2_1_1x1_reduce"
  param {
    lr_mult: 1
    decay_mult: 1
  }
  convolution_param {
    num_output: 128
    pad: 0
    kernel_size: 1
    stride: 1
    weight_filler {
      type: "msra"
    }
    bias_term: false
  }
}
layer {
  name: "depth_conv2_1_1x1_reduce/bn"
  type: "BN"
  bottom: "depth_conv2_1_1x1_reduce"
  top: "depth_conv2_1_1x1_reduce"
  param {
    lr_mult: 1
    decay_mult: 0
  }
  param {
    lr_mult: 1
    decay_mult: 0
  }
  param {
    lr_mult: 0
    decay_mult: 0
  }
  param {
    lr_mult: 0
    decay_mult: 0
  }
  bn_param {
    scale_filler {
      type: "constant"
      value: 1
    }
    shift_filler {
      type: "constant"
      value: 0
    }
    moving_average: true
    decay: 0.05
  }
}
layer {
  name: "depth_conv2_1_1x1_reduce/relu"
  type: "ReLU"
  bottom: "depth_conv2_1_1x1_reduce"
  top: "depth_conv2_1_1x1_reduce"
}
layer {
  name: "depth_conv2_1_3x3"
  type: "Convolution"
  bottom: "depth_conv2_1_1x1_reduce"
  top: "depth_conv2_1_3x3"
  param {
    lr_mult: 1
    decay_mult: 1
  }
  convolution_param {
    num_output: 128
    pad: 1
    kernel_size: 3
    stride: 1
    weight_filler {
      type: "msra"
    }
    bias_term: false
  }
}
layer {
  name: "depth_conv2_1_3x3/bn"
  type: "BN"
  bottom: "depth_conv2_1_3x3"
  top: "depth_conv2_1_3x3"
  param {
    lr_mult: 1
    decay_mult: 0
  }
  param {
    lr_mult: 1
    decay_mult: 0
  }
  param {
    lr_mult: 0
    decay_mult: 0
  }
  param {
    lr_mult: 0
    decay_mult: 0
  }
  bn_param {
    scale_filler {
      type: "constant"
      value: 1
    }
    shift_filler {
      type: "constant"
      value: 0
    }
    moving_average: true
    decay: 0.05
  }
}
layer {
  name: "depth_conv2_1_3x3/relu"
  type: "ReLU"
  bottom: "depth_conv2_1_3x3"
  top: "depth_conv2_1_3x3"
}
layer {
  name: "depth_conv2_1_1x1_increase"
  type: "Convolution"
  bottom: "depth_conv2_1_3x3"
  top: "depth_conv2_1_1x1_increase"
  param {
    lr_mult: 1
    decay_mult: 1
  }
  convolution_param {
    num_output: 256
    pad: 0
    kernel_size: 1
    stride: 1
    weight_filler {
      type: "msra"
    }
    bias_term: false
  }
}
layer {
  name: "depth_conv2_1_1x1_increase/bn"
  type: "BN"
  bottom: "depth_conv2_1_1x1_increase"
  top: "depth_conv2_1_1x1_increase"
  param {
    lr_mult: 1
    decay_mult: 0
  }
  param {
    lr_mult: 1
    decay_mult: 0
  }
  param {
    lr_mult: 0
    decay_mult: 0
  }
  param {
    lr_mult: 0
    decay_mult: 0
  }
  bn_param {
    scale_filler {
      type: "constant"
      value: 1
    }
    shift_filler {
      type: "constant"
      value: 0
    }
    moving_average: true
    decay: 0.05
  }
}
layer {
  name: "depth_conv2_1_1x1_proj"
  type: "Convolution"
  bottom: "depth_corr_concat"
  top: "depth_conv2_1_1x1_proj"
  param {
    lr_mult: 1
    decay_mult: 1
  }
  convolution_param {
    num_output: 256
    pad: 0
    kernel_size: 1
    stride: 1
    weight_filler {
      type: "msra"
    }
    bias_term: false
  }
}
layer {
  name: "depth_conv2_1_1x1_proj/bn"
  type: "BN"
  bottom: "depth_conv2_1_1x1_proj"
  top: "depth_conv2_1_1x1_proj"
  param {
    lr_mult: 1
    decay_mult: 0
  }
  param {
    lr_mult: 1
    decay_mult: 0
  }
  param {
    lr_mult: 0
    decay_mult: 0
  }
  param {
    lr_mult: 0
    decay_mult: 0
  }
  bn_param {
    scale_filler {
      type: "constant"
      value: 1
    }
    shift_filler {
      type: "constant"
      value: 0
    }
    moving_average: true
    decay: 0.05
  }
}
layer {
  name: "depth_conv2_1"
  type: "Eltwise"
  bottom: "depth_conv2_1_1x1_proj"
  bottom: "depth_conv2_1_1x1_increase"
  top: "depth_conv2_1"
  eltwise_param {
    operation: SUM
  }
}
layer {
  name: "depth_conv2_1/relu"
  type: "ReLU"
  bottom: "depth_conv2_1"
  top: "depth_conv2_1"
}
layer {
  name: "depth_conv2_2_1x1_reduce"
  type: "Convolution"
  bottom: "depth_conv2_1"
  top: "depth_conv2_2_1x1_reduce"
  param {
    lr_mult: 1
    decay_mult: 1
  }
  convolution_param {
    num_output: 64
    pad: 0
    kernel_size: 1
    stride: 1
    weight_filler {
      type: "msra"
    }
    bias_term: false
  }
}
layer {
  name: "depth_conv2_2_1x1_reduce/bn"
  type: "BN"
  bottom: "depth_conv2_2_1x1_reduce"
  top: "depth_conv2_2_1x1_reduce"
  param {
    lr_mult: 1
    decay_mult: 0
  }
  param {
    lr_mult: 1
    decay_mult: 0
  }
  param {
    lr_mult: 0
    decay_mult: 0
  }
  param {
    lr_mult: 0
    decay_mult: 0
  }
  bn_param {
    scale_filler {
      type: "constant"
      value: 1
    }
    shift_filler {
      type: "constant"
      value: 0
    }
    moving_average: true
    decay: 0.05
  }
}
layer {
  name: "depth_conv2_2_1x1_reduce/relu"
  type: "ReLU"
  bottom: "depth_conv2_2_1x1_reduce"
  top: "depth_conv2_2_1x1_reduce"
}
layer {
  name: "depth_conv2_2_3x3"
  type: "Convolution"
  bottom: "depth_conv2_2_1x1_reduce"
  top: "depth_conv2_2_3x3"
  param {
    lr_mult: 1
    decay_mult: 1
  }
  convolution_param {
    num_output: 64
    pad: 1
    kernel_size: 3
    stride: 1
    weight_filler {
      type: "msra"
    }
    bias_term: false
  }
}
layer {
  name: "depth_conv2_2_3x3/bn"
  type: "BN"
  bottom: "depth_conv2_2_3x3"
  top: "depth_conv2_2_3x3"
  param {
    lr_mult: 1
    decay_mult: 0
  }
  param {
    lr_mult: 1
    decay_mult: 0
  }
  param {
    lr_mult: 0
    decay_mult: 0
  }
  param {
    lr_mult: 0
    decay_mult: 0
  }
  bn_param {
    scale_filler {
      type: "constant"
      value: 1
    }
    shift_filler {
      type: "constant"
      value: 0
    }
    moving_average: true
    decay: 0.05
  }
}
layer {
  name: "depth_conv2_2_3x3/relu"
  type: "ReLU"
  bottom: "depth_conv2_2_3x3"
  top: "depth_conv2_2_3x3"
}
layer {
  name: "depth_conv2_2_1x1_increase"
  type: "Convolution"
  bottom: "depth_conv2_2_3x3"
  top: "depth_conv2_2_1x1_increase"
  param {
    lr_mult: 1
    decay_mult: 1
  }
  convolution_param {
    num_output: 256
    pad: 0
    kernel_size: 1
    stride: 1
    weight_filler {
      type: "msra"
    }
    bias_term: false
  }
}
layer {
  name: "depth_conv2_2_1x1_increase/bn"
  type: "BN"
  bottom: "depth_conv2_2_1x1_increase"
  top: "depth_conv2_2_1x1_increase"
  param {
    lr_mult: 1
    decay_mult: 0
  }
  param {
    lr_mult: 1
    decay_mult: 0
  }
  param {
    lr_mult: 0
    decay_mult: 0
  }
  param {
    lr_mult: 0
    decay_mult: 0
  }
  bn_param {
    scale_filler {
      type: "constant"
      value: 1
    }
    shift_filler {
      type: "constant"
      value: 0
    }
    moving_average: true
    decay: 0.05
  }
}
layer {
  name: "depth_conv2_2"
  type: "Eltwise"
  bottom: "depth_conv2_1"
  bottom: "depth_conv2_2_1x1_increase"
  top: "depth_conv2_2"
  eltwise_param {
    operation: SUM
  }
}
layer {
  name: "depth_conv2_2/relu"
  type: "ReLU"
  bottom: "depth_conv2_2"
  top: "depth_conv2_2"
}
layer {
  name: "depth_conv2_3_1x1_reduce"
  type: "Convolution"
  bottom: "depth_conv2_2"
  top: "depth_conv2_3_1x1_reduce"
  param {
    lr_mult: 1
    decay_mult: 1
  }
  convolution_param {
    num_output: 64
    pad: 0
    kernel_size: 1
    stride: 1
    weight_filler {
      type: "msra"
    }
    bias_term: false
  }
}
layer {
  name: "depth_conv2_3_1x1_reduce/bn"
  type: "BN"
  bottom: "depth_conv2_3_1x1_reduce"
  top: "depth_conv2_3_1x1_reduce"
  param {
    lr_mult: 1
    decay_mult: 0
  }
  param {
    lr_mult: 1
    decay_mult: 0
  }
  param {
    lr_mult: 0
    decay_mult: 0
  }
  param {
    lr_mult: 0
    decay_mult: 0
  }
  bn_param {
    scale_filler {
      type: "constant"
      value: 1
    }
    shift_filler {
      type: "constant"
      value: 0
    }
    moving_average: true
    decay: 0.05
  }
}
layer {
  name: "depth_conv2_3_1x1_reduce/relu"
  type: "ReLU"
  bottom: "depth_conv2_3_1x1_reduce"
  top: "depth_conv2_3_1x1_reduce"
}
layer {
  name: "depth_conv2_3_3x3"
  type: "Convolution"
  bottom: "depth_conv2_3_1x1_reduce"
  top: "depth_conv2_3_3x3"
  param {
    lr_mult: 1
    decay_mult: 1
  }
  convolution_param {
    num_output: 64
    pad: 1
    kernel_size: 3
    stride: 1
    weight_filler {
      type: "msra"
    }
    bias_term: false
  }
}
layer {
  name: "depth_conv2_3_3x3/bn"
  type: "BN"
  bottom: "depth_conv2_3_3x3"
  top: "depth_conv2_3_3x3"
  param {
    lr_mult: 1
    decay_mult: 0
  }
  param {
    lr_mult: 1
    decay_mult: 0
  }
  param {
    lr_mult: 0
    decay_mult: 0
  }
  param {
    lr_mult: 0
    decay_mult: 0
  }
  bn_param {
    scale_filler {
      type: "constant"
      value: 1
    }
    shift_filler {
      type: "constant"
      value: 0
    }
    moving_average: true
    decay: 0.05
  }
}
layer {
  name: "depth_conv2_3_3x3/relu"
  type: "ReLU"
  bottom: "depth_conv2_3_3x3"
  top: "depth_conv2_3_3x3"
}
layer {
  name: "depth_conv2_3_1x1_increase"
  type: "Convolution"
  bottom: "depth_conv2_3_3x3"
  top: "depth_conv2_3_1x1_increase"
  param {
    lr_mult: 1
    decay_mult: 1
  }
  convolution_param {
    num_output: 256
    pad: 0
    kernel_size: 1
    stride: 1
    weight_filler {
      type: "msra"
    }
    bias_term: false
  }
}
layer {
  name: "depth_conv2_3_1x1_increase/bn"
  type: "BN"
  bottom: "depth_conv2_3_1x1_increase"
  top: "depth_conv2_3_1x1_increase"
  param {
    lr_mult: 1
    decay_mult: 0
  }
  param {
    lr_mult: 1
    decay_mult: 0
  }
  param {
    lr_mult: 0
    decay_mult: 0
  }
  param {
    lr_mult: 0
    decay_mult: 0
  }
  bn_param {
    scale_filler {
      type: "constant"
      value: 1
    }
    shift_filler {
      type: "constant"
      value: 0
    }
    moving_average: true
    decay: 0.05
  }
}
layer {
  name: "depth_conv2_3"
  type: "Eltwise"
  bottom: "depth_conv2_2"
  bottom: "depth_conv2_3_1x1_increase"
  top: "depth_conv2_3"
  eltwise_param {
    operation: SUM
  }
}
layer {
  name: "depth_conv2_3/relu"
  type: "ReLU"
  bottom: "depth_conv2_3"
  top: "depth_conv2_3"
}
layer {
  name: "depth_conv3_1_1x1_reduce"
  type: "Convolution"
  bottom: "depth_conv2_3"
  top: "depth_conv3_1_1x1_reduce"
  param {
    lr_mult: 1
    decay_mult: 1
  }
  convolution_param {
    num_output: 128
    pad: 0
    kernel_size: 1
    stride: 2
    weight_filler {
      type: "msra"
    }
    bias_term: false
  }
}
layer {
  name: "depth_conv3_1_1x1_reduce/bn"
  type: "BN"
  bottom: "depth_conv3_1_1x1_reduce"
  top: "depth_conv3_1_1x1_reduce"
  param {
    lr_mult: 1
    decay_mult: 0
  }
  param {
    lr_mult: 1
    decay_mult: 0
  }
  param {
    lr_mult: 0
    decay_mult: 0
  }
  param {
    lr_mult: 0
    decay_mult: 0
  }
  bn_param {
    scale_filler {
      type: "constant"
      value: 1
    }
    shift_filler {
      type: "constant"
      value: 0
    }
    moving_average: true
    decay: 0.05
  }
}
layer {
  name: "depth_conv3_1_1x1_reduce/relu"
  type: "ReLU"
  bottom: "depth_conv3_1_1x1_reduce"
  top: "depth_conv3_1_1x1_reduce"
}
layer {
  name: "depth_conv3_1_3x3"
  type: "Convolution"
  bottom: "depth_conv3_1_1x1_reduce"
  top: "depth_conv3_1_3x3"
  param {
    lr_mult: 1
    decay_mult: 1
  }
  convolution_param {
    num_output: 128
    pad: 1
    kernel_size: 3
    stride: 1
    weight_filler {
      type: "msra"
    }
    bias_term: false
  }
}
layer {
  name: "depth_conv3_1_3x3/bn"
  type: "BN"
  bottom: "depth_conv3_1_3x3"
  top: "depth_conv3_1_3x3"
  param {
    lr_mult: 1
    decay_mult: 0
  }
  param {
    lr_mult: 1
    decay_mult: 0
  }
  param {
    lr_mult: 0
    decay_mult: 0
  }
  param {
    lr_mult: 0
    decay_mult: 0
  }
  bn_param {
    scale_filler {
      type: "constant"
      value: 1
    }
    shift_filler {
      type: "constant"
      value: 0
    }
    moving_average: true
    decay: 0.05
  }
}
layer {
  name: "depth_conv3_1_3x3/relu"
  type: "ReLU"
  bottom: "depth_conv3_1_3x3"
  top: "depth_conv3_1_3x3"
}
layer {
  name: "depth_conv3_1_1x1_increase"
  type: "Convolution"
  bottom: "depth_conv3_1_3x3"
  top: "depth_conv3_1_1x1_increase"
  param {
    lr_mult: 1
    decay_mult: 1
  }
  convolution_param {
    num_output: 512
    pad: 0
    kernel_size: 1
    stride: 1
    weight_filler {
      type: "msra"
    }
    bias_term: false
  }
}
layer {
  name: "depth_conv3_1_1x1_increase/bn"
  type: "BN"
  bottom: "depth_conv3_1_1x1_increase"
  top: "depth_conv3_1_1x1_increase"
  param {
    lr_mult: 1
    decay_mult: 0
  }
  param {
    lr_mult: 1
    decay_mult: 0
  }
  param {
    lr_mult: 0
    decay_mult: 0
  }
  param {
    lr_mult: 0
    decay_mult: 0
  }
  bn_param {
    scale_filler {
      type: "constant"
      value: 1
    }
    shift_filler {
      type: "constant"
      value: 0
    }
    moving_average: true
    decay: 0.05
  }
}
layer {
  name: "depth_conv3_1_1x1_proj"
  type: "Convolution"
  bottom: "depth_conv2_3"
  top: "depth_conv3_1_1x1_proj"
  param {
    lr_mult: 1
    decay_mult: 1
  }
  convolution_param {
    num_output: 512
    pad: 0
    kernel_size: 1
    stride: 2
    weight_filler {
      type: "msra"
    }
    bias_term: false
  }
}
layer {
  name: "depth_conv3_1_1x1_proj/bn"
  type: "BN"
  bottom: "depth_conv3_1_1x1_proj"
  top: "depth_conv3_1_1x1_proj"
  param {
    lr_mult: 1
    decay_mult: 0
  }
  param {
    lr_mult: 1
    decay_mult: 0
  }
  param {
    lr_mult: 0
    decay_mult: 0
  }
  param {
    lr_mult: 0
    decay_mult: 0
  }
  bn_param {
    scale_filler {
      type: "constant"
      value: 1
    }
    shift_filler {
      type: "constant"
      value: 0
    }
    moving_average: true
    decay: 0.05
  }
}
layer {
  name: "depth_conv3_1"
  type: "Eltwise"
  bottom: "depth_conv3_1_1x1_proj"
  bottom: "depth_conv3_1_1x1_increase"
  top: "depth_conv3_1"
  eltwise_param {
    operation: SUM
  }
}
layer {
  name: "depth_conv3_1/relu"
  type: "ReLU"
  bottom: "depth_conv3_1"
  top: "depth_conv3_1"
}
layer {
  name: "depth_conv3_2_1x1_reduce"
  type: "Convolution"
  bottom: "depth_conv3_1"
  top: "depth_conv3_2_1x1_reduce"
  param {
    lr_mult: 1
    decay_mult: 1
  }
  convolution_param {
    num_output: 128
    pad: 0
    kernel_size: 1
    stride: 1
    weight_filler {
      type: "msra"
    }
    bias_term: false
  }
}
layer {
  name: "depth_conv3_2_1x1_reduce/bn"
  type: "BN"
  bottom: "depth_conv3_2_1x1_reduce"
  top: "depth_conv3_2_1x1_reduce"
  param {
    lr_mult: 1
    decay_mult: 0
  }
  param {
    lr_mult: 1
    decay_mult: 0
  }
  param {
    lr_mult: 0
    decay_mult: 0
  }
  param {
    lr_mult: 0
    decay_mult: 0
  }
  bn_param {
    scale_filler {
      type: "constant"
      value: 1
    }
    shift_filler {
      type: "constant"
      value: 0
    }
    moving_average: true
    decay: 0.05
  }
}
layer {
  name: "depth_conv3_2_1x1_reduce/relu"
  type: "ReLU"
  bottom: "depth_conv3_2_1x1_reduce"
  top: "depth_conv3_2_1x1_reduce"
}
layer {
  name: "depth_conv3_2_3x3"
  type: "Convolution"
  bottom: "depth_conv3_2_1x1_reduce"
  top: "depth_conv3_2_3x3"
  param {
    lr_mult: 1
    decay_mult: 1
  }
  convolution_param {
    num_output: 128
    pad: 1
    kernel_size: 3
    stride: 1
    weight_filler {
      type: "msra"
    }
    bias_term: false
  }
}
layer {
  name: "depth_conv3_2_3x3/bn"
  type: "BN"
  bottom: "depth_conv3_2_3x3"
  top: "depth_conv3_2_3x3"
  param {
    lr_mult: 1
    decay_mult: 0
  }
  param {
    lr_mult: 1
    decay_mult: 0
  }
  param {
    lr_mult: 0
    decay_mult: 0
  }
  param {
    lr_mult: 0
    decay_mult: 0
  }
  bn_param {
    scale_filler {
      type: "constant"
      value: 1
    }
    shift_filler {
      type: "constant"
      value: 0
    }
    moving_average: true
    decay: 0.05
  }
}
layer {
  name: "depth_conv3_2_3x3/relu"
  type: "ReLU"
  bottom: "depth_conv3_2_3x3"
  top: "depth_conv3_2_3x3"
}
layer {
  name: "depth_conv3_2_1x1_increase"
  type: "Convolution"
  bottom: "depth_conv3_2_3x3"
  top: "depth_conv3_2_1x1_increase"
  param {
    lr_mult: 1
    decay_mult: 1
  }
  convolution_param {
    num_output: 512
    pad: 0
    kernel_size: 1
    stride: 1
    weight_filler {
      type: "msra"
    }
    bias_term: false
  }
}
layer {
  name: "depth_conv3_2_1x1_increase/bn"
  type: "BN"
  bottom: "depth_conv3_2_1x1_increase"
  top: "depth_conv3_2_1x1_increase"
  param {
    lr_mult: 1
    decay_mult: 0
  }
  param {
    lr_mult: 1
    decay_mult: 0
  }
  param {
    lr_mult: 0
    decay_mult: 0
  }
  param {
    lr_mult: 0
    decay_mult: 0
  }
  bn_param {
    scale_filler {
      type: "constant"
      value: 1
    }
    shift_filler {
      type: "constant"
      value: 0
    }
    moving_average: true
    decay: 0.05
  }
}
layer {
  name: "depth_conv3_2"
  type: "Eltwise"
  bottom: "depth_conv3_1"
  bottom: "depth_conv3_2_1x1_increase"
  top: "depth_conv3_2"
  eltwise_param {
    operation: SUM
  }
}
layer {
  name: "depth_conv3_2/relu"
  type: "ReLU"
  bottom: "depth_conv3_2"
  top: "depth_conv3_2"
}
layer {
  name: "depth_conv3_3_1x1_reduce"
  type: "Convolution"
  bottom: "depth_conv3_2"
  top: "depth_conv3_3_1x1_reduce"
  param {
    lr_mult: 1
    decay_mult: 1
  }
  convolution_param {
    num_output: 128
    pad: 0
    kernel_size: 1
    stride: 1
    weight_filler {
      type: "msra"
    }
    bias_term: false
  }
}
layer {
  name: "depth_conv3_3_1x1_reduce/bn"
  type: "BN"
  bottom: "depth_conv3_3_1x1_reduce"
  top: "depth_conv3_3_1x1_reduce"
  param {
    lr_mult: 1
    decay_mult: 0
  }
  param {
    lr_mult: 1
    decay_mult: 0
  }
  param {
    lr_mult: 0
    decay_mult: 0
  }
  param {
    lr_mult: 0
    decay_mult: 0
  }
  bn_param {
    scale_filler {
      type: "constant"
      value: 1
    }
    shift_filler {
      type: "constant"
      value: 0
    }
    moving_average: true
    decay: 0.05
  }
}
layer {
  name: "depth_conv3_3_1x1_reduce/relu"
  type: "ReLU"
  bottom: "depth_conv3_3_1x1_reduce"
  top: "depth_conv3_3_1x1_reduce"
}
layer {
  name: "depth_conv3_3_3x3"
  type: "Convolution"
  bottom: "depth_conv3_3_1x1_reduce"
  top: "depth_conv3_3_3x3"
  param {
    lr_mult: 1
    decay_mult: 1
  }
  convolution_param {
    num_output: 128
    pad: 1
    kernel_size: 3
    stride: 1
    weight_filler {
      type: "msra"
    }
    bias_term: false
  }
}
layer {
  name: "depth_conv3_3_3x3/bn"
  type: "BN"
  bottom: "depth_conv3_3_3x3"
  top: "depth_conv3_3_3x3"
  param {
    lr_mult: 1
    decay_mult: 0
  }
  param {
    lr_mult: 1
    decay_mult: 0
  }
  param {
    lr_mult: 0
    decay_mult: 0
  }
  param {
    lr_mult: 0
    decay_mult: 0
  }
  bn_param {
    scale_filler {
      type: "constant"
      value: 1
    }
    shift_filler {
      type: "constant"
      value: 0
    }
    moving_average: true
    decay: 0.05
  }
}
layer {
  name: "depth_conv3_3_3x3/relu"
  type: "ReLU"
  bottom: "depth_conv3_3_3x3"
  top: "depth_conv3_3_3x3"
}
layer {
  name: "depth_conv3_3_1x1_increase"
  type: "Convolution"
  bottom: "depth_conv3_3_3x3"
  top: "depth_conv3_3_1x1_increase"
  param {
    lr_mult: 1
    decay_mult: 1
  }
  convolution_param {
    num_output: 512
    pad: 0
    kernel_size: 1
    stride: 1
    weight_filler {
      type: "msra"
    }
    bias_term: false
  }
}
layer {
  name: "depth_conv3_3_1x1_increase/bn"
  type: "BN"
  bottom: "depth_conv3_3_1x1_increase"
  top: "depth_conv3_3_1x1_increase"
  param {
    lr_mult: 1
    decay_mult: 0
  }
  param {
    lr_mult: 1
    decay_mult: 0
  }
  param {
    lr_mult: 0
    decay_mult: 0
  }
  param {
    lr_mult: 0
    decay_mult: 0
  }
  bn_param {
    scale_filler {
      type: "constant"
      value: 1
    }
    shift_filler {
      type: "constant"
      value: 0
    }
    moving_average: true
    decay: 0.05
  }
}
layer {
  name: "depth_conv3_3"
  type: "Eltwise"
  bottom: "depth_conv3_2"
  bottom: "depth_conv3_3_1x1_increase"
  top: "depth_conv3_3"
  eltwise_param {
    operation: SUM
  }
}
layer {
  name: "depth_conv3_3/relu"
  type: "ReLU"
  bottom: "depth_conv3_3"
  top: "depth_conv3_3"
}
layer {
  name: "depth_conv3_4_1x1_reduce"
  type: "Convolution"
  bottom: "depth_conv3_3"
  top: "depth_conv3_4_1x1_reduce"
  param {
    lr_mult: 1
    decay_mult: 1
  }
  convolution_param {
    num_output: 128
    pad: 0
    kernel_size: 1
    stride: 1
    weight_filler {
      type: "msra"
    }
    bias_term: false
  }
}
layer {
  name: "depth_conv3_4_1x1_reduce/bn"
  type: "BN"
  bottom: "depth_conv3_4_1x1_reduce"
  top: "depth_conv3_4_1x1_reduce"
  param {
    lr_mult: 1
    decay_mult: 0
  }
  param {
    lr_mult: 1
    decay_mult: 0
  }
  param {
    lr_mult: 0
    decay_mult: 0
  }
  param {
    lr_mult: 0
    decay_mult: 0
  }
  bn_param {
    scale_filler {
      type: "constant"
      value: 1
    }
    shift_filler {
      type: "constant"
      value: 0
    }
    moving_average: true
    decay: 0.05
  }
}
layer {
  name: "depth_conv3_4_1x1_reduce/relu"
  type: "ReLU"
  bottom: "depth_conv3_4_1x1_reduce"
  top: "depth_conv3_4_1x1_reduce"
}
layer {
  name: "depth_conv3_4_3x3"
  type: "Convolution"
  bottom: "depth_conv3_4_1x1_reduce"
  top: "depth_conv3_4_3x3"
  param {
    lr_mult: 1
    decay_mult: 1
  }
  convolution_param {
    num_output: 128
    pad: 1
    kernel_size: 3
    stride: 1
    weight_filler {
      type: "msra"
    }
    bias_term: false
  }
}
layer {
  name: "depth_conv3_4_3x3/bn"
  type: "BN"
  bottom: "depth_conv3_4_3x3"
  top: "depth_conv3_4_3x3"
  param {
    lr_mult: 1
    decay_mult: 0
  }
  param {
    lr_mult: 1
    decay_mult: 0
  }
  param {
    lr_mult: 0
    decay_mult: 0
  }
  param {
    lr_mult: 0
    decay_mult: 0
  }
  bn_param {
    scale_filler {
      type: "constant"
      value: 1
    }
    shift_filler {
      type: "constant"
      value: 0
    }
    moving_average: true
    decay: 0.05
  }
}
layer {
  name: "depth_conv3_4_3x3/relu"
  type: "ReLU"
  bottom: "depth_conv3_4_3x3"
  top: "depth_conv3_4_3x3"
}
layer {
  name: "depth_conv3_4_1x1_increase"
  type: "Convolution"
  bottom: "depth_conv3_4_3x3"
  top: "depth_conv3_4_1x1_increase"
  param {
    lr_mult: 1
    decay_mult: 1
  }
  convolution_param {
    num_output: 512
    pad: 0
    kernel_size: 1
    stride: 1
    weight_filler {
      type: "msra"
    }
    bias_term: false
  }
}
layer {
  name: "depth_conv3_4_1x1_increase/bn"
  type: "BN"
  bottom: "depth_conv3_4_1x1_increase"
  top: "depth_conv3_4_1x1_increase"
  param {
    lr_mult: 1
    decay_mult: 0
  }
  param {
    lr_mult: 1
    decay_mult: 0
  }
  param {
    lr_mult: 0
    decay_mult: 0
  }
  param {
    lr_mult: 0
    decay_mult: 0
  }
  bn_param {
    scale_filler {
      type: "constant"
      value: 1
    }
    shift_filler {
      type: "constant"
      value: 0
    }
    moving_average: true
    decay: 0.05
  }
}
layer {
  name: "depth_conv3_4"
  type: "Eltwise"
  bottom: "depth_conv3_3"
  bottom: "depth_conv3_4_1x1_increase"
  top: "depth_conv3_4"
  eltwise_param {
    operation: SUM
  }
}
layer {
  name: "depth_conv3_4/relu"
  type: "ReLU"
  bottom: "depth_conv3_4"
  top: "depth_conv3_4"
}
layer {
  name: "depth_conv4_1_1x1_reduce"
  type: "Convolution"
  bottom: "depth_conv3_4"
  top: "depth_conv4_1_1x1_reduce"
  param {
    lr_mult: 1
    decay_mult: 1
  }
  convolution_param {
    num_output: 256
    pad: 0
    kernel_size: 1
    stride: 1
    weight_filler {
      type: "msra"
    }
    bias_term: false
  }
}
layer {
  name: "depth_conv4_1_1x1_reduce/bn"
  type: "BN"
  bottom: "depth_conv4_1_1x1_reduce"
  top: "depth_conv4_1_1x1_reduce"
  param {
    lr_mult: 1
    decay_mult: 0
  }
  param {
    lr_mult: 1
    decay_mult: 0
  }
  param {
    lr_mult: 0
    decay_mult: 0
  }
  param {
    lr_mult: 0
    decay_mult: 0
  }
  bn_param {
    scale_filler {
      type: "constant"
      value: 1
    }
    shift_filler {
      type: "constant"
      value: 0
    }
    moving_average: true
    decay: 0.05
  }
}
layer {
  name: "depth_conv4_1_1x1_reduce/relu"
  type: "ReLU"
  bottom: "depth_conv4_1_1x1_reduce"
  top: "depth_conv4_1_1x1_reduce"
}
layer {
  name: "depth_conv4_1_3x3"
  type: "HoleConvolution"
  bottom: "depth_conv4_1_1x1_reduce"
  top: "depth_conv4_1_3x3"
  param {
    lr_mult: 1
    decay_mult: 1
  }
  convolution_param {
    num_output: 256
    pad: 2
    hole: 2
    kernel_size: 3
    stride: 1
    weight_filler {
      type: "msra"
    }
    bias_term: false
  }
}
layer {
  name: "depth_conv4_1_3x3/bn"
  type: "BN"
  bottom: "depth_conv4_1_3x3"
  top: "depth_conv4_1_3x3"
  param {
    lr_mult: 1
    decay_mult: 0
  }
  param {
    lr_mult: 1
    decay_mult: 0
  }
  param {
    lr_mult: 0
    decay_mult: 0
  }
  param {
    lr_mult: 0
    decay_mult: 0
  }
  bn_param {
    scale_filler {
      type: "constant"
      value: 1
    }
    shift_filler {
      type: "constant"
      value: 0
    }
    moving_average: true
    decay: 0.05
  }
}
layer {
  name: "depth_conv4_1_3x3/relu"
  type: "ReLU"
  bottom: "depth_conv4_1_3x3"
  top: "depth_conv4_1_3x3"
}
layer {
  name: "depth_conv4_1_1x1_increase"
  type: "Convolution"
  bottom: "depth_conv4_1_3x3"
  top: "depth_conv4_1_1x1_increase"
  param {
    lr_mult: 1
    decay_mult: 1
  }
  convolution_param {
    num_output: 1024
    pad: 0
    kernel_size: 1
    stride: 1
    weight_filler {
      type: "msra"
    }
    bias_term: false
  }
}
layer {
  name: "depth_conv4_1_1x1_increase/bn"
  type: "BN"
  bottom: "depth_conv4_1_1x1_increase"
  top: "depth_conv4_1_1x1_increase"
  param {
    lr_mult: 1
    decay_mult: 0
  }
  param {
    lr_mult: 1
    decay_mult: 0
  }
  param {
    lr_mult: 0
    decay_mult: 0
  }
  param {
    lr_mult: 0
    decay_mult: 0
  }
  bn_param {
    scale_filler {
      type: "constant"
      value: 1
    }
    shift_filler {
      type: "constant"
      value: 0
    }
    moving_average: true
    decay: 0.05
  }
}
layer {
  name: "depth_conv4_1_1x1_proj"
  type: "Convolution"
  bottom: "depth_conv3_4"
  top: "depth_conv4_1_1x1_proj"
  param {
    lr_mult: 1
    decay_mult: 1
  }
  convolution_param {
    num_output: 1024
    pad: 0
    kernel_size: 1
    stride: 1
    weight_filler {
      type: "msra"
    }
    bias_term: false
  }
}
layer {
  name: "depth_conv4_1_1x1_proj/bn"
  type: "BN"
  bottom: "depth_conv4_1_1x1_proj"
  top: "depth_conv4_1_1x1_proj"
  param {
    lr_mult: 1
    decay_mult: 0
  }
  param {
    lr_mult: 1
    decay_mult: 0
  }
  param {
    lr_mult: 0
    decay_mult: 0
  }
  param {
    lr_mult: 0
    decay_mult: 0
  }
  bn_param {
    scale_filler {
      type: "constant"
      value: 1
    }
    shift_filler {
      type: "constant"
      value: 0
    }
    moving_average: true
    decay: 0.05
  }
}
layer {
  name: "depth_conv4_1"
  type: "Eltwise"
  bottom: "depth_conv4_1_1x1_proj"
  bottom: "depth_conv4_1_1x1_increase"
  top: "depth_conv4_1"
  eltwise_param {
    operation: SUM
  }
}
layer {
  name: "depth_conv4_1/relu"
  type: "ReLU"
  bottom: "depth_conv4_1"
  top: "depth_conv4_1"
}
layer {
  name: "depth_conv4_2_1x1_reduce"
  type: "Convolution"
  bottom: "depth_conv4_1"
  top: "depth_conv4_2_1x1_reduce"
  param {
    lr_mult: 1
    decay_mult: 1
  }
  convolution_param {
    num_output: 256
    pad: 0
    kernel_size: 1
    stride: 1
    weight_filler {
      type: "msra"
    }
    bias_term: false
  }
}
layer {
  name: "depth_conv4_2_1x1_reduce/bn"
  type: "BN"
  bottom: "depth_conv4_2_1x1_reduce"
  top: "depth_conv4_2_1x1_reduce"
  param {
    lr_mult: 1
    decay_mult: 0
  }
  param {
    lr_mult: 1
    decay_mult: 0
  }
  param {
    lr_mult: 0
    decay_mult: 0
  }
  param {
    lr_mult: 0
    decay_mult: 0
  }
  bn_param {
    scale_filler {
      type: "constant"
      value: 1
    }
    shift_filler {
      type: "constant"
      value: 0
    }
    moving_average: true
    decay: 0.05
  }
}
layer {
  name: "depth_conv4_2_1x1_reduce/relu"
  type: "ReLU"
  bottom: "depth_conv4_2_1x1_reduce"
  top: "depth_conv4_2_1x1_reduce"
}
layer {
  name: "depth_conv4_2_3x3"
  type: "HoleConvolution"
  bottom: "depth_conv4_2_1x1_reduce"
  top: "depth_conv4_2_3x3"
  param {
    lr_mult: 1
    decay_mult: 1
  }
  convolution_param {
    num_output: 256
    pad: 2
    hole: 2
    kernel_size: 3
    stride: 1
    weight_filler {
      type: "msra"
    }
    bias_term: false
  }
}
layer {
  name: "depth_conv4_2_3x3/bn"
  type: "BN"
  bottom: "depth_conv4_2_3x3"
  top: "depth_conv4_2_3x3"
  param {
    lr_mult: 1
    decay_mult: 0
  }
  param {
    lr_mult: 1
    decay_mult: 0
  }
  param {
    lr_mult: 0
    decay_mult: 0
  }
  param {
    lr_mult: 0
    decay_mult: 0
  }
  bn_param {
    scale_filler {
      type: "constant"
      value: 1
    }
    shift_filler {
      type: "constant"
      value: 0
    }
    moving_average: true
    decay: 0.05
  }
}
layer {
  name: "depth_conv4_2_3x3/relu"
  type: "ReLU"
  bottom: "depth_conv4_2_3x3"
  top: "depth_conv4_2_3x3"
}
layer {
  name: "depth_conv4_2_1x1_increase"
  type: "Convolution"
  bottom: "depth_conv4_2_3x3"
  top: "depth_conv4_2_1x1_increase"
  param {
    lr_mult: 1
    decay_mult: 1
  }
  convolution_param {
    num_output: 1024
    pad: 0
    kernel_size: 1
    stride: 1
    weight_filler {
      type: "msra"
    }
    bias_term: false
  }
}
layer {
  name: "depth_conv4_2_1x1_increase/bn"
  type: "BN"
  bottom: "depth_conv4_2_1x1_increase"
  top: "depth_conv4_2_1x1_increase"
  param {
    lr_mult: 1
    decay_mult: 0
  }
  param {
    lr_mult: 1
    decay_mult: 0
  }
  param {
    lr_mult: 0
    decay_mult: 0
  }
  param {
    lr_mult: 0
    decay_mult: 0
  }
  bn_param {
    scale_filler {
      type: "constant"
      value: 1
    }
    shift_filler {
      type: "constant"
      value: 0
    }
    moving_average: true
    decay: 0.05
  }
}
layer {
  name: "depth_conv4_2"
  type: "Eltwise"
  bottom: "depth_conv4_1"
  bottom: "depth_conv4_2_1x1_increase"
  top: "depth_conv4_2"
  eltwise_param {
    operation: SUM
  }
}
layer {
  name: "depth_conv4_2/relu"
  type: "ReLU"
  bottom: "depth_conv4_2"
  top: "depth_conv4_2"
}
layer {
  name: "depth_conv4_3_1x1_reduce"
  type: "Convolution"
  bottom: "depth_conv4_2"
  top: "depth_conv4_3_1x1_reduce"
  param {
    lr_mult: 1
    decay_mult: 1
  }
  convolution_param {
    num_output: 256
    pad: 0
    kernel_size: 1
    stride: 1
    weight_filler {
      type: "msra"
    }
    bias_term: false
  }
}
layer {
  name: "depth_conv4_3_1x1_reduce/bn"
  type: "BN"
  bottom: "depth_conv4_3_1x1_reduce"
  top: "depth_conv4_3_1x1_reduce"
  param {
    lr_mult: 1
    decay_mult: 0
  }
  param {
    lr_mult: 1
    decay_mult: 0
  }
  param {
    lr_mult: 0
    decay_mult: 0
  }
  param {
    lr_mult: 0
    decay_mult: 0
  }
  bn_param {
    scale_filler {
      type: "constant"
      value: 1
    }
    shift_filler {
      type: "constant"
      value: 0
    }
    moving_average: true
    decay: 0.05
  }
}
layer {
  name: "depth_conv4_3_1x1_reduce/relu"
  type: "ReLU"
  bottom: "depth_conv4_3_1x1_reduce"
  top: "depth_conv4_3_1x1_reduce"
}
layer {
  name: "depth_conv4_3_3x3"
  type: "HoleConvolution"
  bottom: "depth_conv4_3_1x1_reduce"
  top: "depth_conv4_3_3x3"
  param {
    lr_mult: 1
    decay_mult: 1
  }
  convolution_param {
    num_output: 256
    pad: 2
    hole: 2
    kernel_size: 3
    stride: 1
    weight_filler {
      type: "msra"
    }
    bias_term: false
  }
}
layer {
  name: "depth_conv4_3_3x3/bn"
  type: "BN"
  bottom: "depth_conv4_3_3x3"
  top: "depth_conv4_3_3x3"
  param {
    lr_mult: 1
    decay_mult: 0
  }
  param {
    lr_mult: 1
    decay_mult: 0
  }
  param {
    lr_mult: 0
    decay_mult: 0
  }
  param {
    lr_mult: 0
    decay_mult: 0
  }
  bn_param {
    scale_filler {
      type: "constant"
      value: 1
    }
    shift_filler {
      type: "constant"
      value: 0
    }
    moving_average: true
    decay: 0.05
  }
}
layer {
  name: "depth_conv4_3_3x3/relu"
  type: "ReLU"
  bottom: "depth_conv4_3_3x3"
  top: "depth_conv4_3_3x3"
}
layer {
  name: "depth_conv4_3_1x1_increase"
  type: "Convolution"
  bottom: "depth_conv4_3_3x3"
  top: "depth_conv4_3_1x1_increase"
  param {
    lr_mult: 1
    decay_mult: 1
  }
  convolution_param {
    num_output: 1024
    pad: 0
    kernel_size: 1
    stride: 1
    weight_filler {
      type: "msra"
    }
    bias_term: false
  }
}
layer {
  name: "depth_conv4_3_1x1_increase/bn"
  type: "BN"
  bottom: "depth_conv4_3_1x1_increase"
  top: "depth_conv4_3_1x1_increase"
  param {
    lr_mult: 1
    decay_mult: 0
  }
  param {
    lr_mult: 1
    decay_mult: 0
  }
  param {
    lr_mult: 0
    decay_mult: 0
  }
  param {
    lr_mult: 0
    decay_mult: 0
  }
  bn_param {
    scale_filler {
      type: "constant"
      value: 1
    }
    shift_filler {
      type: "constant"
      value: 0
    }
    moving_average: true
    decay: 0.05
  }
}
layer {
  name: "depth_conv4_3"
  type: "Eltwise"
  bottom: "depth_conv4_2"
  bottom: "depth_conv4_3_1x1_increase"
  top: "depth_conv4_3"
  eltwise_param {
    operation: SUM
  }
}
layer {
  name: "depth_conv4_3/relu"
  type: "ReLU"
  bottom: "depth_conv4_3"
  top: "depth_conv4_3"
}
layer {
  name: "depth_conv4_4_1x1_reduce"
  type: "Convolution"
  bottom: "depth_conv4_3"
  top: "depth_conv4_4_1x1_reduce"
  param {
    lr_mult: 1
    decay_mult: 1
  }
  convolution_param {
    num_output: 256
    pad: 0
    kernel_size: 1
    stride: 1
    weight_filler {
      type: "msra"
    }
    bias_term: false
  }
}
layer {
  name: "depth_conv4_4_1x1_reduce/bn"
  type: "BN"
  bottom: "depth_conv4_4_1x1_reduce"
  top: "depth_conv4_4_1x1_reduce"
  param {
    lr_mult: 1
    decay_mult: 0
  }
  param {
    lr_mult: 1
    decay_mult: 0
  }
  param {
    lr_mult: 0
    decay_mult: 0
  }
  param {
    lr_mult: 0
    decay_mult: 0
  }
  bn_param {
    scale_filler {
      type: "constant"
      value: 1
    }
    shift_filler {
      type: "constant"
      value: 0
    }
    moving_average: true
    decay: 0.05
  }
}
layer {
  name: "depth_conv4_4_1x1_reduce/relu"
  type: "ReLU"
  bottom: "depth_conv4_4_1x1_reduce"
  top: "depth_conv4_4_1x1_reduce"
}
layer {
  name: "depth_conv4_4_3x3"
  type: "HoleConvolution"
  bottom: "depth_conv4_4_1x1_reduce"
  top: "depth_conv4_4_3x3"
  param {
    lr_mult: 1
    decay_mult: 1
  }
  convolution_param {
    num_output: 256
    pad: 2
    hole: 2
    kernel_size: 3
    stride: 1
    weight_filler {
      type: "msra"
    }
    bias_term: false
  }
}
layer {
  name: "depth_conv4_4_3x3/bn"
  type: "BN"
  bottom: "depth_conv4_4_3x3"
  top: "depth_conv4_4_3x3"
  param {
    lr_mult: 1
    decay_mult: 0
  }
  param {
    lr_mult: 1
    decay_mult: 0
  }
  param {
    lr_mult: 0
    decay_mult: 0
  }
  param {
    lr_mult: 0
    decay_mult: 0
  }
  bn_param {
    scale_filler {
      type: "constant"
      value: 1
    }
    shift_filler {
      type: "constant"
      value: 0
    }
    moving_average: true
    decay: 0.05
  }
}
layer {
  name: "depth_conv4_4_3x3/relu"
  type: "ReLU"
  bottom: "depth_conv4_4_3x3"
  top: "depth_conv4_4_3x3"
}
layer {
  name: "depth_conv4_4_1x1_increase"
  type: "Convolution"
  bottom: "depth_conv4_4_3x3"
  top: "depth_conv4_4_1x1_increase"
  param {
    lr_mult: 1
    decay_mult: 1
  }
  convolution_param {
    num_output: 1024
    pad: 0
    kernel_size: 1
    stride: 1
    weight_filler {
      type: "msra"
    }
    bias_term: false
  }
}
layer {
  name: "depth_conv4_4_1x1_increase/bn"
  type: "BN"
  bottom: "depth_conv4_4_1x1_increase"
  top: "depth_conv4_4_1x1_increase"
  param {
    lr_mult: 1
    decay_mult: 0
  }
  param {
    lr_mult: 1
    decay_mult: 0
  }
  param {
    lr_mult: 0
    decay_mult: 0
  }
  param {
    lr_mult: 0
    decay_mult: 0
  }
  bn_param {
    scale_filler {
      type: "constant"
      value: 1
    }
    shift_filler {
      type: "constant"
      value: 0
    }
    moving_average: true
    decay: 0.05
  }
}
layer {
  name: "depth_conv4_4"
  type: "Eltwise"
  bottom: "depth_conv4_3"
  bottom: "depth_conv4_4_1x1_increase"
  top: "depth_conv4_4"
  eltwise_param {
    operation: SUM
  }
}
layer {
  name: "depth_conv4_4/relu"
  type: "ReLU"
  bottom: "depth_conv4_4"
  top: "depth_conv4_4"
}
layer {
  name: "depth_conv4_5_1x1_reduce"
  type: "Convolution"
  bottom: "depth_conv4_4"
  top: "depth_conv4_5_1x1_reduce"
  param {
    lr_mult: 1
    decay_mult: 1
  }
  convolution_param {
    num_output: 256
    pad: 0
    kernel_size: 1
    stride: 1
    weight_filler {
      type: "msra"
    }
    bias_term: false
  }
}
layer {
  name: "depth_conv4_5_1x1_reduce/bn"
  type: "BN"
  bottom: "depth_conv4_5_1x1_reduce"
  top: "depth_conv4_5_1x1_reduce"
  param {
    lr_mult: 1
    decay_mult: 0
  }
  param {
    lr_mult: 1
    decay_mult: 0
  }
  param {
    lr_mult: 0
    decay_mult: 0
  }
  param {
    lr_mult: 0
    decay_mult: 0
  }
  bn_param {
    scale_filler {
      type: "constant"
      value: 1
    }
    shift_filler {
      type: "constant"
      value: 0
    }
    moving_average: true
    decay: 0.05
  }
}
layer {
  name: "depth_conv4_5_1x1_reduce/relu"
  type: "ReLU"
  bottom: "depth_conv4_5_1x1_reduce"
  top: "depth_conv4_5_1x1_reduce"
}
layer {
  name: "depth_conv4_5_3x3"
  type: "HoleConvolution"
  bottom: "depth_conv4_5_1x1_reduce"
  top: "depth_conv4_5_3x3"
  param {
    lr_mult: 1
    decay_mult: 1
  }
  convolution_param {
    num_output: 256
    pad: 2
    hole: 2
    kernel_size: 3
    stride: 1
    weight_filler {
      type: "msra"
    }
    bias_term: false
  }
}
layer {
  name: "depth_conv4_5_3x3/bn"
  type: "BN"
  bottom: "depth_conv4_5_3x3"
  top: "depth_conv4_5_3x3"
  param {
    lr_mult: 1
    decay_mult: 0
  }
  param {
    lr_mult: 1
    decay_mult: 0
  }
  param {
    lr_mult: 0
    decay_mult: 0
  }
  param {
    lr_mult: 0
    decay_mult: 0
  }
  bn_param {
    scale_filler {
      type: "constant"
      value: 1
    }
    shift_filler {
      type: "constant"
      value: 0
    }
    moving_average: true
    decay: 0.05
  }
}
layer {
  name: "depth_conv4_5_3x3/relu"
  type: "ReLU"
  bottom: "depth_conv4_5_3x3"
  top: "depth_conv4_5_3x3"
}
layer {
  name: "depth_conv4_5_1x1_increase"
  type: "Convolution"
  bottom: "depth_conv4_5_3x3"
  top: "depth_conv4_5_1x1_increase"
  param {
    lr_mult: 1
    decay_mult: 1
  }
  convolution_param {
    num_output: 1024
    pad: 0
    kernel_size: 1
    stride: 1
    weight_filler {
      type: "msra"
    }
    bias_term: false
  }
}
layer {
  name: "depth_conv4_5_1x1_increase/bn"
  type: "BN"
  bottom: "depth_conv4_5_1x1_increase"
  top: "depth_conv4_5_1x1_increase"
  param {
    lr_mult: 1
    decay_mult: 0
  }
  param {
    lr_mult: 1
    decay_mult: 0
  }
  param {
    lr_mult: 0
    decay_mult: 0
  }
  param {
    lr_mult: 0
    decay_mult: 0
  }
  bn_param {
    scale_filler {
      type: "constant"
      value: 1
    }
    shift_filler {
      type: "constant"
      value: 0
    }
    moving_average: true
    decay: 0.05
  }
}
layer {
  name: "depth_conv4_5"
  type: "Eltwise"
  bottom: "depth_conv4_4"
  bottom: "depth_conv4_5_1x1_increase"
  top: "depth_conv4_5"
  eltwise_param {
    operation: SUM
  }
}
layer {
  name: "depth_conv4_5/relu"
  type: "ReLU"
  bottom: "depth_conv4_5"
  top: "depth_conv4_5"
}
layer {
  name: "depth_conv4_6_1x1_reduce"
  type: "Convolution"
  bottom: "depth_conv4_5"
  top: "depth_conv4_6_1x1_reduce"
  param {
    lr_mult: 1
    decay_mult: 1
  }
  convolution_param {
    num_output: 256
    pad: 0
    kernel_size: 1
    stride: 1
    weight_filler {
      type: "msra"
    }
    bias_term: false
  }
}
layer {
  name: "depth_conv4_6_1x1_reduce/bn"
  type: "BN"
  bottom: "depth_conv4_6_1x1_reduce"
  top: "depth_conv4_6_1x1_reduce"
  param {
    lr_mult: 1
    decay_mult: 0
  }
  param {
    lr_mult: 1
    decay_mult: 0
  }
  param {
    lr_mult: 0
    decay_mult: 0
  }
  param {
    lr_mult: 0
    decay_mult: 0
  }
  bn_param {
    scale_filler {
      type: "constant"
      value: 1
    }
    shift_filler {
      type: "constant"
      value: 0
    }
    moving_average: true
    decay: 0.05
  }
}
layer {
  name: "depth_conv4_6_1x1_reduce/relu"
  type: "ReLU"
  bottom: "depth_conv4_6_1x1_reduce"
  top: "depth_conv4_6_1x1_reduce"
}
layer {
  name: "depth_conv4_6_3x3"
  type: "HoleConvolution"
  bottom: "depth_conv4_6_1x1_reduce"
  top: "depth_conv4_6_3x3"
  param {
    lr_mult: 1
    decay_mult: 1
  }
  convolution_param {
    num_output: 256
    pad: 2
    hole: 2
    kernel_size: 3
    stride: 1
    weight_filler {
      type: "msra"
    }
    bias_term: false
  }
}
layer {
  name: "depth_conv4_6_3x3/bn"
  type: "BN"
  bottom: "depth_conv4_6_3x3"
  top: "depth_conv4_6_3x3"
  param {
    lr_mult: 1
    decay_mult: 0
  }
  param {
    lr_mult: 1
    decay_mult: 0
  }
  param {
    lr_mult: 0
    decay_mult: 0
  }
  param {
    lr_mult: 0
    decay_mult: 0
  }
  bn_param {
    scale_filler {
      type: "constant"
      value: 1
    }
    shift_filler {
      type: "constant"
      value: 0
    }
    moving_average: true
    decay: 0.05
  }
}
layer {
  name: "depth_conv4_6_3x3/relu"
  type: "ReLU"
  bottom: "depth_conv4_6_3x3"
  top: "depth_conv4_6_3x3"
}
layer {
  name: "depth_conv4_6_1x1_increase"
  type: "Convolution"
  bottom: "depth_conv4_6_3x3"
  top: "depth_conv4_6_1x1_increase"
  param {
    lr_mult: 1
    decay_mult: 1
  }
  convolution_param {
    num_output: 1024
    pad: 0
    kernel_size: 1
    stride: 1
    weight_filler {
      type: "msra"
    }
    bias_term: false
  }
}
layer {
  name: "depth_conv4_6_1x1_increase/bn"
  type: "BN"
  bottom: "depth_conv4_6_1x1_increase"
  top: "depth_conv4_6_1x1_increase"
  param {
    lr_mult: 1
    decay_mult: 0
  }
  param {
    lr_mult: 1
    decay_mult: 0
  }
  param {
    lr_mult: 0
    decay_mult: 0
  }
  param {
    lr_mult: 0
    decay_mult: 0
  }
  bn_param {
    scale_filler {
      type: "constant"
      value: 1
    }
    shift_filler {
      type: "constant"
      value: 0
    }
    moving_average: true
    decay: 0.05
  }
}
layer {
  name: "depth_conv4_6"
  type: "Eltwise"
  bottom: "depth_conv4_5"
  bottom: "depth_conv4_6_1x1_increase"
  top: "depth_conv4_6"
  eltwise_param {
    operation: SUM
  }
}
layer {
  name: "depth_conv4_6/relu"
  type: "ReLU"
  bottom: "depth_conv4_6"
  top: "depth_conv4_6"
}
layer {
  name: "depth_conv5_1_1x1_reduce"
  type: "Convolution"
  bottom: "depth_conv4_6"
  top: "depth_conv5_1_1x1_reduce"
  param {
    lr_mult: 1
    decay_mult: 1
  }
  convolution_param {
    num_output: 512
    pad: 0
    kernel_size: 1
    stride: 1
    weight_filler {
      type: "msra"
    }
    bias_term: false
  }
}
layer {
  name: "depth_conv5_1_1x1_reduce/bn"
  type: "BN"
  bottom: "depth_conv5_1_1x1_reduce"
  top: "depth_conv5_1_1x1_reduce"
  param {
    lr_mult: 1
    decay_mult: 0
  }
  param {
    lr_mult: 1
    decay_mult: 0
  }
  param {
    lr_mult: 0
    decay_mult: 0
  }
  param {
    lr_mult: 0
    decay_mult: 0
  }
  bn_param {
    scale_filler {
      type: "constant"
      value: 1
    }
    shift_filler {
      type: "constant"
      value: 0
    }
    moving_average: true
    decay: 0.05
  }
}
layer {
  name: "depth_conv5_1_1x1_reduce/relu"
  type: "ReLU"
  bottom: "depth_conv5_1_1x1_reduce"
  top: "depth_conv5_1_1x1_reduce"
}
layer {
  name: "depth_conv5_1_3x3"
  type: "HoleConvolution"
  bottom: "depth_conv5_1_1x1_reduce"
  top: "depth_conv5_1_3x3"
  param {
    lr_mult: 1
    decay_mult: 1
  }
  convolution_param {
    num_output: 512
    pad: 4
    hole: 4
    kernel_size: 3
    stride: 1
    weight_filler {
      type: "msra"
    }
    bias_term: false
  }
}
layer {
  name: "depth_conv5_1_3x3/bn"
  type: "BN"
  bottom: "depth_conv5_1_3x3"
  top: "depth_conv5_1_3x3"
  param {
    lr_mult: 1
    decay_mult: 0
  }
  param {
    lr_mult: 1
    decay_mult: 0
  }
  param {
    lr_mult: 0
    decay_mult: 0
  }
  param {
    lr_mult: 0
    decay_mult: 0
  }
  bn_param {
    scale_filler {
      type: "constant"
      value: 1
    }
    shift_filler {
      type: "constant"
      value: 0
    }
    moving_average: true
    decay: 0.05
  }
}
layer {
  name: "depth_conv5_1_3x3/relu"
  type: "ReLU"
  bottom: "depth_conv5_1_3x3"
  top: "depth_conv5_1_3x3"
}
layer {
  name: "depth_conv5_1_1x1_increase"
  type: "Convolution"
  bottom: "depth_conv5_1_3x3"
  top: "depth_conv5_1_1x1_increase"
  param {
    lr_mult: 1
    decay_mult: 1
  }
  convolution_param {
    num_output: 2048
    pad: 0
    kernel_size: 1
    stride: 1
    weight_filler {
      type: "msra"
    }
    bias_term: false
  }
}
layer {
  name: "depth_conv5_1_1x1_increase/bn"
  type: "BN"
  bottom: "depth_conv5_1_1x1_increase"
  top: "depth_conv5_1_1x1_increase"
  param {
    lr_mult: 1
    decay_mult: 0
  }
  param {
    lr_mult: 1
    decay_mult: 0
  }
  param {
    lr_mult: 0
    decay_mult: 0
  }
  param {
    lr_mult: 0
    decay_mult: 0
  }
  bn_param {
    scale_filler {
      type: "constant"
      value: 1
    }
    shift_filler {
      type: "constant"
      value: 0
    }
    moving_average: true
    decay: 0.05
  }
}
layer {
  name: "depth_conv5_1_1x1_proj"
  type: "Convolution"
  bottom: "depth_conv4_6"
  top: "depth_conv5_1_1x1_proj"
  param {
    lr_mult: 1
    decay_mult: 1
  }
  convolution_param {
    num_output: 2048
    pad: 0
    kernel_size: 1
    stride: 1
    weight_filler {
      type: "msra"
    }
    bias_term: false
  }
}
layer {
  name: "depth_conv5_1_1x1_proj/bn"
  type: "BN"
  bottom: "depth_conv5_1_1x1_proj"
  top: "depth_conv5_1_1x1_proj"
  param {
    lr_mult: 1
    decay_mult: 0
  }
  param {
    lr_mult: 1
    decay_mult: 0
  }
  param {
    lr_mult: 0
    decay_mult: 0
  }
  param {
    lr_mult: 0
    decay_mult: 0
  }
  bn_param {
    scale_filler {
      type: "constant"
      value: 1
    }
    shift_filler {
      type: "constant"
      value: 0
    }
    moving_average: true
    decay: 0.05
  }
}
layer {
  name: "depth_conv5_1"
  type: "Eltwise"
  bottom: "depth_conv5_1_1x1_proj"
  bottom: "depth_conv5_1_1x1_increase"
  top: "depth_conv5_1"
  eltwise_param {
    operation: SUM
  }
}
layer {
  name: "depth_conv5_1/relu"
  type: "ReLU"
  bottom: "depth_conv5_1"
  top: "depth_conv5_1"
}
layer {
  name: "depth_conv5_2_1x1_reduce"
  type: "Convolution"
  bottom: "depth_conv5_1"
  top: "depth_conv5_2_1x1_reduce"
  param {
    lr_mult: 1
    decay_mult: 1
  }
  convolution_param {
    num_output: 512
    pad: 0
    kernel_size: 1
    stride: 1
    weight_filler {
      type: "msra"
    }
    bias_term: false
  }
}
layer {
  name: "depth_conv5_2_1x1_reduce/bn"
  type: "BN"
  bottom: "depth_conv5_2_1x1_reduce"
  top: "depth_conv5_2_1x1_reduce"
  param {
    lr_mult: 1
    decay_mult: 0
  }
  param {
    lr_mult: 1
    decay_mult: 0
  }
  param {
    lr_mult: 0
    decay_mult: 0
  }
  param {
    lr_mult: 0
    decay_mult: 0
  }
  bn_param {
    scale_filler {
      type: "constant"
      value: 1
    }
    shift_filler {
      type: "constant"
      value: 0
    }
    moving_average: true
    decay: 0.05
  }
}
layer {
  name: "depth_conv5_2_1x1_reduce/relu"
  type: "ReLU"
  bottom: "depth_conv5_2_1x1_reduce"
  top: "depth_conv5_2_1x1_reduce"
}
layer {
  name: "depth_conv5_2_3x3"
  type: "HoleConvolution"
  bottom: "depth_conv5_2_1x1_reduce"
  top: "depth_conv5_2_3x3"
  param {
    lr_mult: 1
    decay_mult: 1
  }
  convolution_param {
    num_output: 512
    pad: 4
    hole: 4
    kernel_size: 3
    stride: 1
    weight_filler {
      type: "msra"
    }
    bias_term: false
  }
}
layer {
  name: "depth_conv5_2_3x3/bn"
  type: "BN"
  bottom: "depth_conv5_2_3x3"
  top: "depth_conv5_2_3x3"
  param {
    lr_mult: 1
    decay_mult: 0
  }
  param {
    lr_mult: 1
    decay_mult: 0
  }
  param {
    lr_mult: 0
    decay_mult: 0
  }
  param {
    lr_mult: 0
    decay_mult: 0
  }
  bn_param {
    scale_filler {
      type: "constant"
      value: 1
    }
    shift_filler {
      type: "constant"
      value: 0
    }
    moving_average: true
    decay: 0.05
  }
}
layer {
  name: "depth_conv5_2_3x3/relu"
  type: "ReLU"
  bottom: "depth_conv5_2_3x3"
  top: "depth_conv5_2_3x3"
}
layer {
  name: "depth_conv5_2_1x1_increase"
  type: "Convolution"
  bottom: "depth_conv5_2_3x3"
  top: "depth_conv5_2_1x1_increase"
  param {
    lr_mult: 1
    decay_mult: 1
  }
  convolution_param {
    num_output: 2048
    pad: 0
    kernel_size: 1
    stride: 1
    weight_filler {
      type: "msra"
    }
    bias_term: false
  }
}
layer {
  name: "depth_conv5_2_1x1_increase/bn"
  type: "BN"
  bottom: "depth_conv5_2_1x1_increase"
  top: "depth_conv5_2_1x1_increase"
  param {
    lr_mult: 1
    decay_mult: 0
  }
  param {
    lr_mult: 1
    decay_mult: 0
  }
  param {
    lr_mult: 0
    decay_mult: 0
  }
  param {
    lr_mult: 0
    decay_mult: 0
  }
  bn_param {
    scale_filler {
      type: "constant"
      value: 1
    }
    shift_filler {
      type: "constant"
      value: 0
    }
    moving_average: true
    decay: 0.05
  }
}
layer {
  name: "depth_conv5_2"
  type: "Eltwise"
  bottom: "depth_conv5_1"
  bottom: "depth_conv5_2_1x1_increase"
  top: "depth_conv5_2"
  eltwise_param {
    operation: SUM
  }
}
layer {
  name: "depth_conv5_2/relu"
  type: "ReLU"
  bottom: "depth_conv5_2"
  top: "depth_conv5_2"
}
layer {
  name: "depth_conv5_3_1x1_reduce"
  type: "Convolution"
  bottom: "depth_conv5_2"
  top: "depth_conv5_3_1x1_reduce"
  param {
    lr_mult: 1
    decay_mult: 1
  }
  convolution_param {
    num_output: 512
    pad: 0
    kernel_size: 1
    stride: 1
    weight_filler {
      type: "msra"
    }
    bias_term: false
  }
}
layer {
  name: "depth_conv5_3_1x1_reduce/bn"
  type: "BN"
  bottom: "depth_conv5_3_1x1_reduce"
  top: "depth_conv5_3_1x1_reduce"
  param {
    lr_mult: 1
    decay_mult: 0
  }
  param {
    lr_mult: 1
    decay_mult: 0
  }
  param {
    lr_mult: 0
    decay_mult: 0
  }
  param {
    lr_mult: 0
    decay_mult: 0
  }
  bn_param {
    scale_filler {
      type: "constant"
      value: 1
    }
    shift_filler {
      type: "constant"
      value: 0
    }
    moving_average: true
    decay: 0.05
  }
}
layer {
  name: "depth_conv5_3_1x1_reduce/relu"
  type: "ReLU"
  bottom: "depth_conv5_3_1x1_reduce"
  top: "depth_conv5_3_1x1_reduce"
}
layer {
  name: "depth_conv5_3_3x3"
  type: "HoleConvolution"
  bottom: "depth_conv5_3_1x1_reduce"
  top: "depth_conv5_3_3x3"
  param {
    lr_mult: 1
    decay_mult: 1
  }
  convolution_param {
    num_output: 512
    pad: 4
    hole: 4
    kernel_size: 3
    stride: 1
    weight_filler {
      type: "msra"
    }
    bias_term: false
  }
}
layer {
  name: "depth_conv5_3_3x3/bn"
  type: "BN"
  bottom: "depth_conv5_3_3x3"
  top: "depth_conv5_3_3x3"
  param {
    lr_mult: 1
    decay_mult: 0
  }
  param {
    lr_mult: 1
    decay_mult: 0
  }
  param {
    lr_mult: 0
    decay_mult: 0
  }
  param {
    lr_mult: 0
    decay_mult: 0
  }
  bn_param {
    scale_filler {
      type: "constant"
      value: 1
    }
    shift_filler {
      type: "constant"
      value: 0
    }
    moving_average: true
    decay: 0.05
  }
}
layer {
  name: "depth_conv5_3_3x3/relu"
  type: "ReLU"
  bottom: "depth_conv5_3_3x3"
  top: "depth_conv5_3_3x3"
}
layer {
  name: "depth_conv5_3_1x1_increase"
  type: "Convolution"
  bottom: "depth_conv5_3_3x3"
  top: "depth_conv5_3_1x1_increase"
  param {
    lr_mult: 1
    decay_mult: 1
  }
  convolution_param {
    num_output: 2048
    pad: 0
    kernel_size: 1
    stride: 1
    weight_filler {
      type: "msra"
    }
    bias_term: false
  }
}
layer {
  name: "depth_conv5_3_1x1_increase/bn"
  type: "BN"
  bottom: "depth_conv5_3_1x1_increase"
  top: "depth_conv5_3_1x1_increase"
  param {
    lr_mult: 1
    decay_mult: 0
  }
  param {
    lr_mult: 1
    decay_mult: 0
  }
  param {
    lr_mult: 0
    decay_mult: 0
  }
  param {
    lr_mult: 0
    decay_mult: 0
  }
  bn_param {
    scale_filler {
      type: "constant"
      value: 1
    }
    shift_filler {
      type: "constant"
      value: 0
    }
    moving_average: true
    decay: 0.05
  }
}
layer {
  name: "depth_conv5_3"
  type: "Eltwise"
  bottom: "depth_conv5_2"
  bottom: "depth_conv5_3_1x1_increase"
  top: "depth_conv5_3"
  eltwise_param {
    operation: SUM
  }
}
layer {
  name: "depth_conv5_3/relu"
  type: "ReLU"
  bottom: "depth_conv5_3"
  top: "depth_conv5_3"
}
layer {
  name: "depth_conv5_4"
  type: "Convolution"
  bottom: "depth_conv5_3"
  top: "depth_conv5_4"
  param {
    lr_mult: 1
    decay_mult: 1
  }
  convolution_param {
    num_output: 512
    kernel_size: 3
    stride: 1
    pad: 1
    weight_filler {
      type: "msra"
    }
    bias_term: false
  }
}
layer {
  name: "depth_conv5_4/bn"
  type: "BN"
  bottom: "depth_conv5_4"
  top: "depth_conv5_4"
  param {
    lr_mult: 1
    decay_mult: 0
  }
  param {
    lr_mult: 1
    decay_mult: 0
  }
  param {
    lr_mult: 0
    decay_mult: 0
  }
  param {
    lr_mult: 0
    decay_mult: 0
  }
  bn_param {
    scale_filler {
      type: "constant"
      value: 1
    }
    shift_filler {
      type: "constant"
      value: 0
    }
    moving_average: true
    decay: 0.05
  }
}
layer {
  name: "depth_conv5_4/relu"
  type: "ReLU"
  bottom: "depth_conv5_4"
  top: "depth_conv5_4"
}

#---------disp decoder----------
layer {
  name: "depth_deconv3"
  type: "Deconvolution"
  bottom: "depth_conv5_4"
  top: "depth_deconv3"
  param {
    lr_mult: 1
    decay_mult: 1
  }
  convolution_param {
    num_output: 256
    pad: 1
    kernel_size: 3
    stride: 2
    weight_filler {
      type: "msra"
    }
    bias_term: false
  }
}
layer {
  name: "depth_deconv3/bn"
  type: "BN"
  bottom: "depth_deconv3"
  top: "depth_deconv3"
  param {
    lr_mult: 1
    decay_mult: 0
  }
  param {
    lr_mult: 1
    decay_mult: 0
  }
  param {
    lr_mult: 0
    decay_mult: 0
  }
  param {
    lr_mult: 0
    decay_mult: 0
  }
  bn_param {
    scale_filler {
      type: "constant"
      value: 1
    }
    shift_filler {
      type: "constant"
      value: 0
    }
    moving_average: true
    decay: 0.05
  }
}
layer {
  name: "depth_deconv3/relu"
  type: "ReLU"
  bottom: "depth_deconv3"
  top: "depth_deconv3"
}
layer {
  name: "depth_deconv2"
  type: "Deconvolution"
  bottom: "depth_deconv3"
  top: "depth_deconv2"
  param {
    lr_mult: 1
    decay_mult: 1
  }
  convolution_param {
    num_output: 128
    pad: 1
    kernel_size: 3
    stride: 2
    weight_filler {
      type: "msra"
    }
    bias_term: false
  }
}
layer {
  name: "depth_deconv2/bn"
  type: "BN"
  bottom: "depth_deconv2"
  top: "depth_deconv2"
  param {
    lr_mult: 1
    decay_mult: 0
  }
  param {
    lr_mult: 1
    decay_mult: 0
  }
  param {
    lr_mult: 0
    decay_mult: 0
  }
  param {
    lr_mult: 0
    decay_mult: 0
  }
  bn_param {
    scale_filler {
      type: "constant"
      value: 1
    }
    shift_filler {
      type: "constant"
      value: 0
    }
    moving_average: true
    decay: 0.05
  }
}
layer {
  name: "depth_deconv2/relu"
  type: "ReLU"
  bottom: "depth_deconv2"
  top: "depth_deconv2"
}
layer {
  name: "depth_deconv1"
  type: "Deconvolution"
  bottom: "depth_deconv2"
  top: "depth_deconv1"
  param {
    lr_mult: 1
    decay_mult: 1
  }
  convolution_param {
    num_output: 64
    pad: 1
    kernel_size: 3
    stride: 2
    weight_filler {
      type: "msra"
    }
    bias_term: false
  }
}
layer {
  name: "depth_deconv1/bn"
  type: "BN"
  bottom: "depth_deconv1"
  top: "depth_deconv1"
  param {
    lr_mult: 1
    decay_mult: 0
  }
  param {
    lr_mult: 1
    decay_mult: 0
  }
  param {
    lr_mult: 0
    decay_mult: 0
  }
  param {
    lr_mult: 0
    decay_mult: 0
  }
  bn_param {
    scale_filler {
      type: "constant"
      value: 1
    }
    shift_filler {
      type: "constant"
      value: 0
    }
    moving_average: true
    decay: 0.05
  }
}
layer {
  name: "depth_deconv1/relu"
  type: "ReLU"
  bottom: "depth_deconv1"
  top: "depth_deconv1"
}
layer {
  name: "depth_conv6"
  type: "Convolution"
  bottom: "depth_deconv1"
  top: "depth_conv6"
  param {
    lr_mult: 1
    decay_mult: 1
  }
  convolution_param {
    num_output: 32
    pad: 1
    kernel_size: 3
    stride: 1
    weight_filler {
      type: "msra"
    }
    bias_term: false
  }
}
layer {
  name: "depth_conv6/bn"
  type: "BN"
  bottom: "depth_conv6"
  top: "depth_conv6"
  param {
    lr_mult: 1
    decay_mult: 0
  }
  param {
    lr_mult: 1
    decay_mult: 0
  }
  param {
    lr_mult: 0
    decay_mult: 0
  }
  param {
    lr_mult: 0
    decay_mult: 0
  }
  bn_param {
    scale_filler {
      type: "constant"
      value: 1
    }
    shift_filler {
      type: "constant"
      value: 0
    }
    moving_average: true
    decay: 0.05
  }
}
layer {
  name: "depth_conv6/relu"
  type: "ReLU"
  bottom: "depth_conv6"
  top: "depth_conv6"
}
layer {
  name: "depth_conv6_disp"
  type: "Convolution"
  bottom: "depth_conv6"
  top: "depth_conv6_disp"
  param {
    lr_mult: 1
    decay_mult: 1
  }
  param {
    lr_mult: 2
    decay_mult: 1
  }
  convolution_param {
    num_output: 1
    pad: 1
    kernel_size: 3
    stride: 1
    weight_filler {
      type: "msra"
    }
  }
}
